model/model.pth (torch, 16787 bytes, 4 tensors)

linear1.weight f4 [256, 11]
00000000: 6d33 aa3d 4ffe c7bd 1f7d 9c3d ed34 37be
00000010: 7940 123e 7427 8b3d 9b01 3b3e 5a1b 733e
00000020: 7ae9 94be 9848 e93d acf9 78be 3b50 6b3e
00000030: 4635 8fbc 8e49 873e 2621 05bd a23c 723e
00000040: 21bc 3d3e 44df 34bc a73c 9f3d c97f 37be
00000050: a083 aa3c 462f 7ebe f56b 533d 4ce0 93bd
00000060: 9b9e ce3d 0e06 0f3d 77f2 9dbd 5ab2 8b3e
00000070: 500b 7fbe b758 a53d 4dd3 49be e013 62bd
00000080: 6920 803e dc11 5a3e 1116 633d f801 823c
00000090: 5d26 663e 8ed3 dc3c e558 10bd 7a8f 2bbe
000000a0: 6682 163e c931 13be 6132 223e 30c4 63be
000000b0: 3ebe 9a3e efae 953e 9613 42be 56ce 4b3e
000000c0: 846e 89bd 69dc 123e 0866 c1bd 0c5a fcbd
000000d0: a5ee 453d 9ec7 a7bd 57a4 653e c4ac b23e
000000e0: ddb3 e7bd 0579 42be 1cd4 e93d 6776 e23c
000000f0: e37f 293d 785c 6a3e 3561 dd3d 52f0 a4bc
00000100: fab9 4f3d f135 eb3d 46b4 0abc b3cd af3d
00000110: 8d25 703b 3895 ca3d d126 30be 8c35 8dbe
00000120: 7040 8cbb 7cd3 493e de3b 59bc 6fdb 2fbe
00000130: 32cf 06be 8d8d 86be 6ff1 4e3e c2f8 6d3e
00000140: 2218 80bd f9dd 69be 0e97 8d3e 49e0 7e3e
00000150: f282 7c3e 4f83 abbd b65a 623e 28de e03d
00000160: 99ef 113e 1501 30bc 8080 20be 123f f93d
00000170: 3639 f63d c27f 043d 3c4a a43e 55d3 253e
00000180: b9e9 903e d405 e0bd bc00 29bd 14f4 8dbe
00000190: ec24 b7bd 5343 803d 06c3 aa3e 5afd 063e
000001a0: 48dc 7cbd 7f36 1c3e c7a5 133d 294a 06be
000001b0: c787 4e3e 86b6 eebd 01ca 053e ea9a 26be
000001c0: 1472 883e 6df5 a23e 65d0 873e 7c6d bcbd
000001d0: a84e 7ebe a922 9d3c b0ee f3bd a59d 933e
000001e0: 317f 903d 1419 d93d 115b bf3d 6b40 163e
000001f0: 31cf 6b3d 1478 66bd a67e 133e 8f14 d73d
00000200: 610f 90be 4aca 4dbd f242 603c c473 d13d
00000210: 6661 813c 754e 13be 8523 e53c b51d 8b3e
00000220: dee6 473b 5805 8c3e 456c 04be 44a9 2e3e
00000230: 7201 8bbe a709 29be 8c72 873e ff7e c3be
00000240: c2ee 2cbd 5d24 b6bd 4eff d13c 9cec 8f3e
00000250: eb1e 753c dfbd a93d 732a 9e3d 63ab 8d3e
00000260: 27f9 81be e81d 543e a078 3ebc 4739 1d3e
00000270: 61f4 6bbd 4799 71be b49e 6bbd 6811 28bd
00000280: 37ab ae3d 3480 8e3e 5beb 2e3e 9011 8ebe
00000290: eb8e 40be 4dc2 0bbe 2534 19be 01e2 54be
000002a0: 548c d4bc 6def 66be 61c7 4abd ba1d 04be
000002b0: 036e 4d3e fe4e a23c 15fe f43d 00a3 1f3d
000002c0: d0f5 523e 7a7b 783e 02cc 113c d24b c83d
000002d0: a41d 693e 77bd 523e bef5 0bbe d943 853e
000002e0: 1e72 a93e f4f7 873e 18cd 4b3d de6b 613e
000002f0: d8df 8b3e e4d7 953e 0a85 9b3e 4935 bbbd
00000300: aa4b 3e3e 2787 cf3d 58b3 06be 3e76 683e
00000310: 1972 bbbd fe14 8ebd 08e4 8dbe 4052 3dbc
00000320: 8b8a 103e 4834 df3d 600f fcbc 7873 bb3d
00000330: fa55 613c 309c 8c3d a251 3fbe 576b 48be
00000340: a973 94be 6429 1b3c 8aea 58be c2ad aa3e
00000350: ccb6 253e abb8 c53d d7cb 083d 013f 89be
00000360: 18fc 153e d8d4 73bd 729b 7fbe e5b3 88be
00000370: 6c6e 8e3d 54ba 833d c02e 703d 2852 30bd
00000380: 6526 91be 00e1 87bb 4a3c 1b3e 1c8e 5cbe
00000390: 7363 97be 2211 53be 003e 033c 25d7 b73e
000003a0: b903 e93d 2f72 933e e7bb 043e 9bd6 8bbc
000003b0: 4336 a0bd 8675 e9bd 141c 7c3e 9e2e 9dbd
000003c0: b00d 5abd 3e4d 6abe 2602 1bbe c576 513e
000003d0: 2e42 ab3d cb93 8dbe 4a43 8b3d cbb6 94be
000003e0: b751 61bd 4ba7 553e ddaa 20be 2ebf d8bd
000003f0: b099 c8bd d803 9b3e 799c c5bd 1bd3 30bd
0.0831059 -0.097653024 0.076410525 -0.17891283 0.14282407 0.067946345 0.18262331 0.23740903
-0.29084378 0.11390799 -0.24313992 0.22979824 -0.017481457 0.26423305 -0.032502316 0.23655942
0.18528797 -0.011039559 0.077752404 -0.1791984 0.020814717 -0.24822721 0.051616628 -0.072205156
0.10088845 0.034917884 -0.07712262 0.2728451 -0.24906659 0.08073562 -0.19709511 -0.055194736
0.25024727 0.21295875 0.055440966 0.01587008 0.22475572 0.026956346 -0.035241026 -0.1675395
0.1469818 -0.1437446 0.1583953 -0.22242808 0.30223268 0.29235026 -0.18952784 0.1990293
-0.06710532 0.14341892 -0.09443289 -0.123218626 0.048323292 -0.08192371 0.22425972 0.34897435
-0.11313603 -0.18991478 0.1141741 0.02764435 0.041381728 0.22886837 0.108095564 -0.020134125
0.05071447 0.11484898 -0.008465832 0.08584156 0.0036643476 0.098917425 -0.17202307 -0.27579916
-0.0042801425 0.19709581 -0.013258902 -0.17173551 -0.13164976 -0.2627987 0.20209287 0.23239425
-0.06254603 -0.22838582 0.27654308 0.24890245 0.24659327 -0.083746545 0.22104916 0.10979873
0.14251556 -0.0107424455 -0.15674019 0.12170233 0.12022631 0.0323484 0.32087886 0.16193898
0.28303316 -0.109386116 -0.041260466 -0.2772528 -0.08942589 0.06262841 0.33351916 0.13182583
-0.061733514 0.15255164 0.03604677 -0.13114227 0.20168982 -0.11655907 0.1306534 -0.16270033
0.26649535 0.3182787 0.2652618 -0.0920057 -0.24834692 0.019181566 -0.119107604 0.2883121
0.0705551 0.106004864 0.093435414 0.14673011 0.05757064 -0.05626686 0.14403781 0.10501968
-0.28136733 -0.050241746 0.013687836 0.10227159 0.015793514 -0.14385398 0.027971039 0.27171102
0.0030502598 0.27347827 -0.12931927 0.17056757 -0.2714954 -0.16507588 0.2645458 -0.38182828
-0.042219885 -0.088936545 0.025634434 0.28110206 0.014960985 0.08288168 0.0772294 0.2766982
-0.253854 0.20714533 -0.011625439 0.15353881 -0.057606105 -0.23593627 -0.057524398 -0.041032225
0.085287504 0.27832186 0.17081968 -0.27747774 -0.18804519 -0.13648339 -0.14961298 -0.20789339
-0.02594582 -0.22552271 -0.04950655 -0.12901965 0.20061497 0.019813057 0.11962525 0.03897381
0.20601583 0.24265853 0.008898737 0.097800866 0.22765213 0.20580088 -0.13667962 0.26028326
0.33094877 0.2655636 0.04975614 0.22013804 0.27319217 0.29266274 0.30374938 -0.09141023
0.18583551 0.101332 -0.13154352 0.22701356 -0.09152622 -0.06937598 -0.27713037 -0.011555254
0.1411535 0.10898644 -0.03076905 0.09152883 0.013753409 0.06865728 -0.18683484 -0.19572197
-0.28994492 0.0094703175 -0.2118322 0.33335692 0.16183013 0.09654363 0.03339752 -0.2680588
0.14646947 -0.059529155 -0.24961641 -0.2669975 0.06954655 0.06432024 0.058638334 -0.0430471
-0.28349605 -0.004146695 0.15159717 -0.21538585 -0.2956806 -0.20612004 0.008010387 0.3590633
0.11377663 0.28798053 0.12962304 -0.017070105 -0.078228496 -0.11399369 0.24620086 -0.07674907
-0.05323571 -0.22881028 -0.15137538 0.20455463 0.08362232 -0.2765182 0.06799944 -0.2904571
-0.05500957 0.20864598 -0.15690179 -0.1058334 -0.097949386 0.3027637 -0.096489854 -0.043170076

linear1.bias f4 [256]
00000000: 35d7 68bd 9fa8 6abd e7fd 943e a05d 9fbe
00000010: 27bb a23e 54fb af3e ac02 493a bf00 113e
00000020: 6dcb 0d3e 2424 14be 4d82 1ebe f54d aabe
00000030: 1e60 1c3d efcb a93e be90 8dbe ce68 093e
00000040: 0139 0f3e ab70 ad3d 9d56 33be 0db0 873e
00000050: 28bc 81be d8f9 0abe 1f8d 35be ffc9 d8bd
00000060: 01a4 edbd 8cda 48bd 78a8 f13d e288 f03d
00000070: 5179 983d ca2a ae3e 3843 323e 2a13 43bd
00000080: f518 5f3e dc6c 2a3e f7e8 b33e 1432 ae3c
00000090: fe79 58bc 735c 11be dda4 443e 9dcf 52be
000000a0: b400 923d 5d21 7f3e fb2f 003d 5d6e 1ebe
000000b0: 725c 373e 1697 7c3d 578a b13c e3bc b33e
000000c0: f2d2 993d 68a9 2a3e a04d 67be 7376 56be
000000d0: 5bb2 1b3e 1dfb a03e cb3f 623e 470a 0cbe
000000e0: c819 ae3d bd15 2b3c eb48 9c3e 3796 103e
000000f0: b06d be3d 6391 023e 9711 5b3e ae74 57be
00000100: dfef 823e af56 dd3d d107 8d3e 7d3d 4fbd
00000110: eb57 c3bd 63d9 7bbe 094f 763e 075d 50be
00000120: 692e a63e c128 33be cb04 b83e a95c 333e
00000130: b65f 1e3e c54c 083e f0ec 973e 4879 373e
00000140: f608 16bd 4492 913e be5f a7bd 4228 833e
00000150: 2d8a 043e 6716 9f3c 679d 5cbe 208b 0c3c
00000160: 05b9 8ebd d046 7e3e 8182 73be 54a4 93bd
00000170: e270 73be 005e 973e 918b b9bd 1477 10bd
00000180: d8b3 bb3e 0349 2fbe 883a 133d 0b5f 823e
00000190: 7241 873e f4b3 32bd 7394 b13c 51bb ad3d
000001a0: f2c9 a9bc b55f 813d 7b32 5d3e c9d9 69bd
000001b0: 20de 5ebe 59c4 5fbd 8d81 8abd afcc debd
000001c0: 3e62 db3d be89 e8bc 022a 86bb f2d5 013e
000001d0: 94f5 1a3d 9418 12be bd6f 103e 5111 db3d
000001e0: 3e7a 84bd 1145 5ebe 6e12 fe3d 76cc 6c3e
000001f0: bff5 773e 70ce 00be 6792 02be 6798 47be
00000200: d163 52be 10fa d63d d901 3fbe 6531 70be
00000210: 32fd eebd 0287 a83e 19c8 413e 16f5 ee3d
00000220: 30cd 943c 0fee 9bbe 7645 043d 8721 9d3d
00000230: 85c9 633d aaa2 6bbe 2603 993d b764 65be
00000240: cd01 e9bd 4b85 c53e fd14 a4be 1ff3 09bd
00000250: 8a2c a43e b338 9a3e cc05 febd c2ac d2bd
00000260: b3f0 a43e 7fa7 913e c6ef f3bd 99af bbbc
00000270: c73e 953d fc8b 8dbe 47cf 6fbd 3388 633e
00000280: 25b7 443c 348f 953d 60d8 c13b 67a1 fe3c
00000290: 697f 663e f8d9 52bc 9470 8c3e 5df9 bb3d
000002a0: e775 4fbe 6f98 e63d 8e88 323e fb4f 8abe
000002b0: f1d9 a13d dea6 85bb 7302 e33d 31dd 183e
000002c0: 4035 20be 2514 7abe 5a12 963c 46f3 743d
000002d0: 0c9a 073e 71a4 1b3e 41e9 293e beaf 813e
000002e0: 5d69 923e 4c4a 59be adb0 943e da90 233e
000002f0: 9ef2 55be 2afc c93d 4779 8b3e fc71 843e
00000300: cb01 80be 63f6 873e da90 9abd 2d9f a0be
00000310: 1bfd 933e cd2e 8dbe fd30 9b3e 9a1b 8d3e
00000320: 9766 8e3c 3070 8d3e ed34 903d d33e 8abd
00000330: 482f a5bd fbab b23c 2529 0c3e 3a23 853d
00000340: 9ac3 5bbc ee64 7c3e 00c4 383e 4292 86be
00000350: d9bc 663e 0eb9 74be 6174 663d ed12 473d
00000360: c903 4b3e 2e4d 09be aa88 3dbe 588b 813d
00000370: 842a 28be 2a85 c23e 9ab7 90be 571a 113b
00000380: 96e5 d7bd dacd 663d 4372 d0bc 9258 adbd
00000390: a260 3c3e 163b 67be 137c 5fbd 1eca 97bd
000003a0: 0577 503e 3bae 823e 6b76 25be 1972 863e
000003b0: f48d eebc 3ab2 ac3c ff76 853d e1e2 3d3d
000003c0: 6897 963d f724 c13e 705c 0f3e ede6 80bc
000003d0: cc6d 9f3e 25e0 c03e 5b94 8c3c d95c c43d
000003e0: 0b41 b03e 2b47 0c3e 95e6 953d 8b82 413e
000003f0: 4002 1abe 9f36 083e 1015 9abe 8d32 d73c
-0.056845862 -0.057289716 0.29099962 -0.31126118 0.3178341 0.34371436 0.00076679396 0.14160441
0.13847132 -0.14466912 -0.15479393 -0.33262601 0.038177602 0.331634 -0.27649492 0.13418886
0.13986589 0.08468755 -0.17513509 0.26501504 -0.25338864 -0.1357187 -0.17729615 -0.10585403
-0.11603547 -0.049036548 0.11799711 0.11744858 0.07445014 0.3401702 0.17408454 -0.0476257
0.21786864 0.16643089 0.35138676 0.021264113 -0.013212679 -0.14195423 0.19203515 -0.2058701
0.0712904 0.24915071 0.031295758 -0.15471788 0.17906359 0.061667524 0.02167241 0.35105047
0.07510938 0.16666186 -0.22588205 -0.20943622 0.15204756 0.31441584 0.22094648 -0.13675795
0.08501011 0.0104421945 0.30524382 0.14119802 0.09298265 0.12750773 0.21393429 -0.21040604
0.25573632 0.10807549 0.27545026 -0.05059575 -0.095382534 -0.24594645 0.24053587 -0.20347987
0.32457283 -0.17496015 0.35941157 0.17515816 0.15466198 0.13310535 0.29672956 0.17917359
-0.03662964 0.28431904 -0.08172558 0.25616652 0.12943335 0.019419862 -0.21544419 0.008578092
-0.069688834 0.248317 -0.23780252 -0.072090775 -0.2377353 0.29563904 -0.09059823 -0.03526981
0.36660647 -0.17117696 0.03594449 0.25463137 0.26417118 -0.043628648 0.021677231 0.084829934
-0.020726178 0.06317083 0.21601288 -0.05709246 -0.21764421 -0.05463061 -0.06762991 -0.10878884
0.107120976 -0.028385993 -0.004094363 0.1267927 0.037831858 -0.14267188 0.14105125 0.10696662
-0.06468628 -0.21706034 0.12405859 0.2312487 0.24214838 -0.1257875 -0.1275116 -0.1949173
-0.2054589 0.104969144 -0.18653049 -0.23456343 -0.11669387 0.32915503 0.18923987 0.1166784
0.018164247 -0.30455062 0.032292806 0.076724105 0.055612106 -0.2301127 0.07471304 -0.22401701
-0.113772966 0.38578257 -0.32047263 -0.033679124 0.3206523 0.30121383 -0.124034494 -0.10286857
0.3221489 0.28448102 -0.119109675 -0.02291088 0.072873645 -0.27645862 -0.058547284 0.22219925
0.012006556 0.073027045 0.0059156865 0.031082822 0.2250954 -0.012869351 0.2742964 0.09178422
-0.2025982 0.11259543 0.17434904 -0.27014145 0.07902897 -0.00407873 0.110844515 0.14928128
-0.15645313 -0.24421747 0.018319298 0.059802316 0.13242358 0.15199448 0.16592886 0.25329393
0.2859601 -0.21219748 0.29041043 0.15973225 -0.20893332 0.098625496 0.27240965 0.25868213
-0.25001368 0.26555166 -0.075471595 -0.3137144 0.28904042 -0.2757477 0.30310813 0.2756012
0.017382903 0.27624655 0.07041345 -0.06750264 -0.08065659 0.021810522 0.1368757 0.065008596
-0.013413334 0.24647877 0.18043518 -0.2628346 0.22532977 -0.23898718 0.05626333 0.048602033
0.19825663 -0.13408348 -0.18509164 0.06325406 -0.16422468 0.3799222 -0.28265077 0.0022140944
-0.10541837 0.05634866 -0.02544511 -0.08464159 0.18396237 -0.22581133 -0.054561686 -0.07411598
0.20357902 0.25523552 -0.16158454 0.26258925 -0.029120423 0.021081079 0.06516837 0.046358947
0.07353097 0.37723514 0.14000106 -0.015735114 0.31138456 0.3767101 0.017160585 0.09588022
0.34424624 0.13699023 0.07319371 0.18897454 -0.15039921 0.13302086 -0.30094194 0.026269222

linear2.weight f4 [3, 256]
00000000: 6be4 c7bd e981 63bc e57a 5fbc 1e73 9abc
00000010: 0bee 02be cb07 d3bd 9acc 9a3d 6e82 913c
00000020: 4350 44bd 1f43 5d3d 4de6 04bd 740c 623d
00000030: a0e7 a93c cc3d 6d3d 4a5e 46bc 06e8 9dbd
00000040: 8be1 0cbe cc8b 90bd b41d 2ab9 965e 04bd
00000050: 1019 843b c1fa d7bd 8a98 063c ed42 e4bd
00000060: 1c06 e2bd e60e 3fbd 8550 2ebd 0117 d0bd
00000070: a1a4 a2bd 544e 91bd 548f 053a 76d3 9dbb
00000080: a7b1 2abd d069 83bd 2d90 033b ddd8 343d
00000090: 168c 813c 5a1b 76bd 40a3 a23c e641 043e
000000a0: 4152 0abe f537 a5bd 2530 96bc fd57 fdbc
000000b0: 3789 d23b e81b 013d e679 e2bc 20d6 9abd
000000c0: e024 9ebd 1c7a 0fbe 3845 9bbc ce7c 96bc
000000d0: b470 2fbd da0d f33c 1980 3dbd 8c2f 61bd
000000e0: fc12 b6bd 9fd4 9abd 5c55 c03c a19b 5bbc
000000f0: 8dd3 85bd 8eac c5bc 3104 b0bd ec17 93bd
00000100: 786f 20bd d7a7 c9bc 2f9c a9bd 0609 dabc
00000110: b624 75bd ccc5 bcbc 7289 febd 7166 bebc
00000120: 20d6 a5bd da06 8b3c d7b3 bcbd 10cc 95bc
00000130: cb85 25bb 40db dfba e8af cabd 3f5e 7dbd
00000140: a4a9 83bb dd63 22bd fdab 8dbd 5865 b8bd
00000150: a85a a6bc 8c7b 46bd 8a22 24bd 4359 43bd
00000160: 1238 55bd c92a 70bb b384 81bb 5aa7 c1bd
00000170: 2d37 cf3c cc3c 8bbd e422 afbd ed4a b5bd
00000180: aec4 53bd 2a42 93bd 0ec4 59bd 136c 783b
00000190: 1c09 2f3b 21eb 5c3b 94c3 a33c 44f8 31ba
000001a0: 4666 73bd 85bb 7abc 7d08 35bd e082 d4bc
000001b0: bfd1 73bc ad64 cfbd 40a5 21bd 9273 5ebd
000001c0: 2035 13bd 7c68 e03b 3c80 003c 24f6 7fbd
000001d0: eced afbd daf1 efbb 6d26 55bc 93c9 19bd
000001e0: 216c 233d 7378 343a 2272 93bd 887a f6bc
000001f0: 8a26 0cbc 3475 373c 7467 3ebd f688 0fbd
00000200: 04e9 84bd 8aa2 e63d 1c9e 8dbd 98fd b23c
00000210: 88b3 403c 8c51 2fbd 6b32 a0bd 5974 c5bd
00000220: 4aa7 a4bd 5d8a 7d3c 2e88 c8bd 68a8 70bb
00000230: e7a6 42bd c155 1f3c 2c5b 483c df6f 68bc
00000240: f099 17bb 9a13 95bd 51f3 143d d3b7 7dbc
00000250: 0286 c2bd 49a2 c5bd 887f 79bd e08e 9ebc
00000260: 6d91 973c 5fb1 dfbd 27be 72bd 86b3 123d
00000270: 1aa3 afbd 215b ba3b b92f 82bd f8e5 b3bd
00000280: d30b 0bbd 874c d5bc 8778 03bd e916 083e
00000290: 46d4 e3bc 4fa7 d9bc 7463 77ba 1f55 13bd
000002a0: 919e 62bd dc4b 22bd 6dc9 8c3d 761a 1e3d
000002b0: 6232 c3bd e4d6 943a 57fa bcbd f2ae 9c3c
000002c0: 0e61 34bd eec1 e63c b47e dbbd 2876 0b3d
000002d0: 3969 223d e432 e6bd a718 97bd 94d0 26bd
000002e0: 6049 89bd 4c1c b4bd e09a f2bd 867b 5dbc
000002f0: 45ab d8bd 2b40 733d 78a2 a9bd a0c6 79bc
00000300: 6ce6 f5bc 892b b3bc deff 71bb 52bd 003d
00000310: 0a8e 553c 25a8 81bd 0600 f5bd 4f06 5d3a
00000320: 40ae 1abd df6b 4abd fdac a2bd 24ab 9ebc
00000330: b67f e13c 9c9a e0b9 2851 44bd 2668 bebd
00000340: 58b8 803b b7df 53bc 927e 83bd 237c 9abd
00000350: 0570 013c 76f5 f13a d7f9 94bd c7eb 69bd
00000360: d114 d3bd 70ba d1bb ec33 ddbc 81bb 733d
00000370: 2141 56bd 19e9 26bd 92c7 9f3c f81c 4bbd
00000380: b7d5 473d 72d9 58bc dd5e ddbd 2415 5abd
00000390: e17a 9b3d cd0e 5dbd 5493 a93b 8daf bc3d
000003a0: 61cc b0bd 86b6 653a 2b5f 86bd 7002 72bc
000003b0: 2819 efbc e46a 19bc 8c08 d13c 88c3 573c
000003c0: 5bbf 18bc 7b7b b0bd cd75 49bc 6c66 c8bd
000003d0: 523f 743b c1c3 dabd 0552 d8bd 21d3 85bd
000003e0: 436b 8ebd 0f59 96bd 99bc 48bd 397f 48bd
000003f0: 3515 0abc 4931 293d 905f cc3c 34f3 01be
-0.09760364 -0.013885953 -0.01364014 -0.01885372 -0.12786119 -0.10304221 0.07558556 0.017762389
-0.047928106 0.05401909 -0.032446194 0.055187657 0.02074033 0.057920262 -0.012107441 -0.077102706
-0.13757913 -0.07057914 -0.00016223529 -0.032316767 0.004031308 -0.105458744 0.008215079 -0.111455776
-0.110363215 -0.046645068 -0.04255726 -0.10160638 -0.07941557 -0.07095018 0.0005094905 -0.004816468
-0.04167333 -0.064166665 0.002007495 0.04415213 0.015813868 -0.06008468 0.019853234 0.12915763
-0.1350794 -0.080673136 -0.018333504 -0.030925745 0.0064250487 0.031520754 -0.027646016 -0.07560372
-0.07721877 -0.14011425 -0.018953905 -0.018370058 -0.04283209 0.02966969 -0.04626474 -0.054976985
-0.0889034 -0.075600855 0.023478203 -0.013403804 -0.06534491 -0.024130132 -0.085945494 -0.07182297
-0.039168805 -0.024616165 -0.08281743 -0.02661563 -0.059849463 -0.023043536 -0.12428559 -0.023242207
-0.08097482 0.01697104 -0.09213989 -0.018285781 -0.0025256749 -0.0017078891 -0.09896833 -0.06185746
-0.0040180255 -0.03964602 -0.0691757 -0.09003705 -0.0203069 -0.048457667 -0.040072 -0.04769255
-0.052055426 -0.0036646596 -0.0039525866 -0.09455748 0.025294865 -0.067987055 -0.08551577 -0.088521816
-0.05170124 -0.07190354 -0.053165488 0.0037906214 0.002670831 0.0033709484 0.01999072 -0.00067890086
-0.059423707 -0.015303497 -0.04419755 -0.025941312 -0.01488155 -0.10126624 -0.039464235 -0.054309435
-0.035939336 0.006848393 0.007843073 -0.062490597 -0.08590302 -0.007322532 -0.01300965 -0.03754575
0.03989804 0.00068844034 -0.071995035 -0.030087724 -0.00855411 0.011197377 -0.04648538 -0.035042726
-0.06489757 0.112614706 -0.069149226 0.021849439 0.011761554 -0.04280238 -0.078221165 -0.09641332
-0.0803972 0.015474883 -0.09791599 -0.0036721472 -0.04752245 0.009725035 0.012228768 -0.014186828
-0.0023132525 -0.07279129 0.036364857 -0.015485722 -0.09498216 -0.09650094 -0.06091264 -0.019355237
0.018501962 -0.10922503 -0.059263375 0.03581574 -0.08576031 0.005687133 -0.063567586 -0.087840974
-0.033946823 -0.026037468 -0.032097366 0.1328999 -0.02781118 -0.026569037 -0.0009437122 -0.03596985
-0.055327002 -0.039623126 0.068743564 0.038599454 -0.09531094 0.0011355546 -0.09227436 0.01912639
-0.04403787 0.028168645 -0.10717526 0.03404823 0.03965113 -0.11240175 -0.07377749 -0.04072626
-0.06703448 -0.0879446 -0.11845946 -0.01351822 -0.10579542 0.059387367 -0.082829416 -0.01524511
-0.0300171 -0.021871345 -0.003692619 0.03143055 0.013034353 -0.06330899 -0.11962895 0.0008431421
-0.037763834 -0.04941928 -0.07943151 -0.019368716 0.027526718 -0.00042839802 -0.04792896 -0.092972085
0.0039282255 -0.012931756 -0.06420626 -0.075432085 0.007900243 0.0018459994 -0.07274216 -0.05710962
-0.10306705 -0.006400399 -0.027002297 0.05950499 -0.052308206 -0.040749643 0.019504342 -0.049588174
0.0487878 -0.013235437 -0.10809109 -0.053242818 0.07591797 -0.053969193 0.0051750336 0.09213171
-0.08632732 0.0008762855 -0.065611206 -0.014771089 -0.0291868 -0.009363864 0.02551677 0.013169177
-0.009322966 -0.08617302 -0.012296152 -0.097851604 0.0037269187 -0.10681868 -0.10562519 -0.0653441
-0.06954052 -0.07341205 -0.049007986 -0.048949454 -0.008427908 0.041306768 0.024947912 -0.12690431

linear2.bias f4 [3]
00000000: 6bae dd3b e814 87bd afe0 aebd
0.006765177 -0.065957844 -0.08538949
