model/model.pth (torch, 16787 bytes, 4 tensors)

linear1.weight f4 [256, 11]
-0.23833267 0.032842662 -0.11183257 -0.12640394 0.094510816 0.16191132 -0.02510905 -0.35321128
0.2885126 -0.27333784 0.16888411 -0.010048409 0.022469986 -0.2483899 -0.22843626 -0.00016910478
-0.08082859 0.1324082 -0.15000318 -0.08555577 0.06309202 -0.018028514 -0.1435599 0.23586386
0.0411113 -0.27503935 0.14912002 -0.038407717 -0.015031453 0.21303004 -0.27424783 0.24535967
0.07499046 -0.017398478 -0.20429102 0.07270807 0.09228777 0.16757898 0.09957704 0.28561804
-0.2541384 -0.2400134 0.17529483 -0.0010972153 -0.18296239 0.24370058 -0.18725124 0.2651915
-0.17146865 0.024157412 0.12791695 0.13182494 0.2340892 0.10818607 0.09373198 0.19063468
0.22178581 0.11206001 -0.27151883 0.024316065 -0.29837894 0.22160178 -0.34829494 0.21887523
0.26800403 -0.21398231 0.2559733 0.08070233 -0.17061377 -0.25223532 -0.28505957 0.060854588
0.18269245 -0.051932905 -0.21328993 -0.15192293 0.063827954 0.17675109 -0.2022343 -0.25822136
0.1295885 -0.11668431 0.115783684 0.050112702 0.11506164 0.014905491 -0.21192977 0.15039282
-0.13084278 -0.2459811 -0.0821232 0.1367918 -0.14218059 -0.21309544 -0.11921035 0.13378482
-0.14382918 -0.18400265 0.3201806 -0.19712391 0.017464995 -0.049283624 0.16866712 0.10560325
0.06345588 -0.16785851 -0.22457674 -0.19789526 0.18024443 -0.078606024 -0.22324407 -0.2723761
-0.19848198 0.28306028 0.09681054 0.1411536 -0.24544962 -0.2604501 -0.2057142 -0.08810652
0.009434987 -0.18162881 0.16671413 -0.033376362 0.14034343 0.20523563 -0.16136722 -0.22781631
-0.23931837 0.20137013 0.23185667 0.26529765 -0.23301555 0.009264663 -0.2434352 0.13746274
0.21334772 0.22575334 0.2383312 0.15076004 0.13746521 0.22632492 0.19193913 0.06182312
-0.09565106 0.19137262 0.21768889 -0.15681013 -0.029082196 -0.03349681 0.026616285 0.22795418
0.060089305 0.26737663 -0.023471657 -0.17251348 -0.28990084 0.028622389 0.055722915 0.19162208
-0.03657331 -0.26990625 -0.10950183 0.22661938 -0.30664888 -0.043682545 0.20972957 0.024390887
-0.05068463 0.22893381 0.11371653 -0.09217782 -0.04543108 -0.093740426 -0.08682556 -0.25673732
-0.22851796 0.18017624 0.2581052 0.07082855 -0.2321628 -0.04253693 -0.25835338 0.06941886
0.20658624 -0.26101843 -0.08590176 -0.0035152766 0.25696465 0.21432133 0.25005317 -0.20471364
-0.28382814 0.07349165 -0.0141150225 -0.22773495 -0.21393146 0.15275645 -0.06841724 -0.1881641
-0.122318715 0.025988879 0.085302025 0.27091917 -0.24156597 0.072046645 -0.05999122 0.06137475
0.0074162986 0.18043701 0.14910318 0.29898214 -0.19868247 0.12999491 0.0877811 0.02053821
-0.08741795 0.24295409 -0.18704976 -0.1183272 -0.18370359 0.16388978 -0.15709648 0.09456512
-0.034367766 5.7842633e-05 -0.3470819 0.19011858 -0.19045645 0.27854982 0.08439046 -0.005658098
0.16851373 0.052298166 0.19302423 0.2027353 0.26286656 0.0034556 0.102669664 -0.2693679
0.18882953 -0.10939809 -0.079644516 -0.09186904 -0.037421763 0.024290875 -0.28154144 -0.13469884
-0.026986802 -0.29623708 -0.2674945 0.020618875 -0.23735507 0.32277063 0.11303965 -0.20357482
00000000: 7b0d 74be 0786 063d 7908 e5bd 0970 01be
00000010: e38e c13d 15cc 253e 7fb1 cdbc 1cd8 b4be
00000020: ecb7 933e f0f2 8bbe f5ef 2c3e 15a2 24bc
00000030: fa12 b83c ec59 7ebe 32eb 69be b851 31b9
00000040: 7689 a5bd 0496 073e 6f9a 19be dd37 afbd
00000050: 6436 813d 89b0 93bc 5e01 13be 4c86 713e
00000060: 5364 283d f5d1 8cbe ebb2 183e 6951 1dbd
00000070: 7c46 76bc 8c24 5a3e 366a 8cbe 913f 7b3e
00000080: 9994 993d 4187 8ebc aa31 51be f8e7 943d
00000090: 5f01 bd3d d399 2b3e 0cef cb3d 873c 923e
000000a0: 6e1e 82be 13c6 75be 7d80 333e 70d0 8fba
000000b0: 7e5a 3bbe a58c 793e cabe 3fbe 2ec7 873e
000000c0: 7a95 2fbe c4e5 c53c a9fc 023e 1efd 063e
000000d0: 14b5 6f3e a990 dd3d 8df6 bf3d bd35 433e
000000e0: d21b 633e b87f e53d 8404 8bbe 7c32 c73c
000000f0: 20c5 98be 94eb 623e b753 b2be d420 603e
00000100: d337 893e 2e1e 5bbe ef0e 833e 4347 a53d
00000110: 60b5 2ebe fd24 81be 54f3 91be a942 793d
00000120: bb13 3b3e 99b7 54bd ad68 5abe af91 1bbe
00000130: 3bb8 823d 3dfe 343e 8216 4fbe 9735 84be
00000140: d9b2 043e 2ff8 eebd ff1f ed3d fa42 4d3d
00000150: 70a5 eb3d 2936 743c 1e04 59be 9300 1a3e
00000160: a6fb 05be 78e2 7bbe 3530 a8bd 2613 0c3e
00000170: ca97 11be b135 5abe 8e24 f4bd e3fe 083e
00000180: f547 13be 316b 3cbe b6ee a33e dada 49be
00000190: c012 8f3c a0dd 49bd 13b7 2c3e 8446 d83d
000001a0: 28f5 813d 1ae3 2bbe 72f7 65be 0ea5 4abe
000001b0: ff91 383e 32fc a0bd 189a 64be e174 8bbe
000001c0: dc3e 4bbe 47ed 903e 9b44 c63d 928a 103e
000001d0: 2557 7bbe b759 85be bea6 52be 3171 b4bd
000001e0: 3495 1a3c e7fc 39be 1cb7 2a3e a7b5 08bd
000001f0: 30b6 0f3e 4a29 523e 733d 25be ae48 69be
00000200: e00f 75be f933 4e3e d66b 6d3e 18d5 873e
00000210: a19b 6ebe d0ca 173c 1447 79be 08c3 0c3e
00000220: d377 5a3e e22b 673e 180d 743e d760 1a3e
00000230: aec3 0c3e b8c1 673e b18b 443e 3d3a 7d3d
00000240: b4e4 c3bd 2ff7 433e d6e9 5e3e d692 20be
00000250: c93d eebc f333 09bd 650a da3c d26c 693e
00000260: 3420 763d 97e5 883e a247 c0bc 60a7 30be
00000270: e26d 94be 8079 ea3c b63d 643d 9438 443e
00000280: e5cd 15bd 2731 8abe 7f42 e0bd e90e 683e
00000290: 1501 9dbe 78ec 32bd 59c3 563e 66cf c73c
000002a0: b09a 4fbd a06d 6a3e 36e4 e83d bac7 bcbd
000002b0: f115 3abd fbfa bfbd 99d1 b1bd 1373 83be
000002c0: 9d00 6abe 1f80 383e 5d26 843e 8f0e 913d
000002d0: 16bc 6dbe 343b 2ebd e546 84be 7a2b 8e3d
000002e0: 588b 533e 35a4 85be 43ed afbd 8e60 66bb
000002f0: df90 833e 0d77 5b3e f806 803e 74a0 51be
00000300: ec51 91be ca82 963d b242 67bc 5a33 69be
00000310: d910 5bbe 306c 1c3e 571e 8cbd 17ae 40be
00000320: 3c82 fabd a1e6 d43c d4b2 ae3d ebb5 8a3e
00000330: 125d 77be 318d 933d 5ab9 75bd 1764 7b3d
00000340: 6c04 f33b 7bc4 383e 81ae 183e 3014 993e
00000350: 6b73 4bbe 631d 053e 94c6 b33d c03f a83c
00000360: 2f08 b3bd f5c8 783e f989 3fbe 8855 f2bd
00000370: cb1c 3cbe b9d2 273e e6dd 20be 5cab c13d
00000380: 37c5 0cbd 0e9c 7238 b8b4 b1be 72ae 423e
00000390: 0407 43be 159e 8e3e e8d4 ac3d 9167 b9bb
000003a0: dd8e 2c3e 9a36 563d 25a8 453e d899 4f3e
000003b0: 7296 863e 5977 623b 7944 d23d 97ea 89be
000003c0: 875c 413e 1b0c e0bd aa1c a3bd d625 bcbd
000003d0: 9047 19bd a8fd c63c 3326 90be 7eee 09be
000003e0: 6d13 ddbc 63ac 97be 0af5 88be eae8 a83c
000003f0: 350d 73be 3142 a53e 5581 e73d eb75 50be

linear1.bias f4 [256]
0.010913896 0.26770866 -0.02469864 -0.21678971 -0.0063490365 -0.009563204 0.02767063 0.17614412
0.253599 -0.3388544 0.03902666 0.17639628 0.31640872 0.30800605 0.23188731 -0.010258187
0.011945672 0.056594808 -0.013440135 -0.09967094 -0.07313626 -0.30033267 0.22126207 0.089143895
0.09544378 -0.048960187 -0.19853608 -0.2416507 -0.20616889 0.24616405 -0.0027251558 0.12516591
0.25713995 -0.2877996 -0.16744047 -0.23706889 0.2741673 0.07651349 0.25486067 0.17127283
0.18354431 0.07327633 0.08776194 -0.15413661 -0.0030105512 0.119793765 -0.14224157 -0.22408819
0.107320376 -0.11014246 -0.23697332 0.108687975 -0.24502644 -0.10117003 -0.16164033 0.20045581
0.008771018 -0.12261164 -0.28598163 0.2545641 0.20801492 -0.20687833 -0.13777405 -0.32756114
-0.0612706 0.033009343 0.08482724 -0.10601555 0.19617495 0.12008454 -0.30022624 -0.10148413
-0.2143298 -0.22823033 0.19126955 -0.27920753 -0.24780026 0.12533712 0.09822586 -0.051545676
0.033927172 -0.26422107 0.2522197 -0.10171459 0.12083293 0.030288916 0.26066464 -0.28798687
0.104148075 0.29896495 0.16612194 -0.315505 0.18791169 0.010754646 0.30985284 -0.062003206
-0.009510366 -0.027547207 -0.0052023935 0.20888726 -0.17139567 -0.11113427 0.0546519 0.1429547
-0.2940819 0.1490395 -0.27694532 -0.2880889 -0.1123609 -0.049939383 -0.03533038 0.18930037
0.0683166 -0.1935977 -0.21581705 0.15165442 -0.14175417 0.010526769 -0.23684901 0.1752009
0.16845371 -0.23781253 -0.16784467 0.027309408 -0.061560452 0.060471226 0.0019360825 0.10953032
-0.2240796 0.029870756 -0.07731147 0.14610705 -0.098423526 0.18834767 -0.26540807 -0.23284154
-0.27032974 0.05647987 -0.14531234 0.048371777 0.26085058 -0.011676241 -0.07394622 -0.15453735
0.07928292 0.28197327 0.28795058 -0.2562398 -0.22714224 -0.104682766 0.23526792 0.2779144
0.06816296 0.041040532 -0.2061833 0.14238894 -0.23884104 0.20996553 -0.21675012 0.22451325
-0.25746417 0.10359663 -0.22663939 -0.1472986 -0.0991829 -0.15819423 0.25596 -0.26162574
-0.068717055 0.14651756 -0.16499805 -0.051990006 -0.0007598577 -0.20496023 -0.016186345 -0.22329457
-0.22996949 -0.26123923 0.122618355 -0.13057597 -0.21210511 0.1864833 -0.025749197 -0.19140328
-0.068926044 0.13644965 -0.08829886 0.27503386 0.23571135 0.0074602375 -0.28685078 -0.06008934
-0.19535506 0.058563966 -0.28887513 0.22037633 -0.004295092 0.18666062 0.2709634 -0.27852777
0.28336853 -0.111022174 0.18602201 0.1777235 -0.016692542 0.22938947 -0.087830834 -0.12812327
-0.1935264 0.20701748 -0.27109906 0.26473483 -0.0750838 -0.23155777 -0.28452137 0.18499912
-0.3008722 0.20454974 -0.18932264 0.08452618 0.19565281 -0.18047936 0.13154812 -0.06907982
-0.22350752 0.052006856 -0.14844717 -0.050549496 0.21110053 0.1785927 0.051497232 0.2914777
0.22409509 -0.23594964 -0.1493216 0.1852467 0.14826533 0.035962656 -0.15632533 0.021492576
0.261926 0.060985196 0.13270132 -0.24735793 0.08920661 0.19221504 -0.025845638 0.13456385
-0.017281024 0.057297394 0.08052253 0.18230768 -0.24222398 -0.026748456 0.124853484 0.25827676
00000000: 33d0 323c 1c11 893e cd54 cabc 1ffe 5dbe
00000010: 940b d0bb fcae 1cbc 84ad e23c 205f 343e
00000020: bad7 813e 537e adbe 6bda 1f3d 3aa1 343e
00000030: 5300 a23e f8b2 9d3e de73 6d3e f411 28bc
00000040: c8b7 433c f5cf 673d 0334 5cbc 4720 ccbd
00000050: 77c8 95bd 34c5 99be 8692 623e 1391 b63d
00000060: 0778 c33d 7a8a 48bd 0b4d 4bbe 4873 77be
00000070: f01d 53be 6e12 7c3e 8798 32bb 7e2b 003e
00000080: d9a7 833e 785a 93be 8475 2bbe 30c2 72be
00000090: a85f 8c3e 1bb3 9c3d 197d 823e 2562 2f3e
000000a0: 0af3 3b3e e711 963d 88bc b33d fdd5 1dbe
000000b0: ab4c 45bb 6f56 f53d c6a7 11be 6077 65be
000000c0: c9ca db3d 5f92 e1bd 22a9 72be cd97 de3d
000000d0: 36e8 7abe 3c32 cfbd 0b85 25be 4a44 4d3e
000000e0: 51b4 0f3c d01b fbbd 2f6c 92be 3a56 823e
000000f0: dd01 553e ead7 53be a414 0dbe 18b6 a7be
00000100: e1f6 7abd ce34 073d e7b9 ad3d ae1e d9bd
00000110: 16e2 483e e2ee f53d 41b7 99be e9d6 cfbd
00000120: 4579 5bbe 36b5 69be 2adc 433e 4af4 8ebe
00000130: 5abf 7dbe 6058 003e a42a c93d 8f21 53bd
00000140: 38f7 0a3d fc47 87be f122 813e bd4f d0bd
00000150: 4177 f73d 7620 f83c d675 853e 0473 93be
00000160: 964b d53d ef11 993e df1b 2a3e df89 a1be
00000170: ec6b 403e 4134 303c 08a5 9e3e 13f7 7dbd
00000180: 5ed1 1bbc aeaa e1bc d778 aabb 8be6 553e
00000190: 5982 2fbe 5d9a e3bd acda 5f3d b862 123e
000001a0: e791 96be d09d 183e c7cb 8dbe 6380 93be
000001b0: 791d e6bd 3d8d 4cbd 97b6 10bd f5d7 413e
000001c0: 93e9 8b3d 7a3e 46be 25ff 5cbe 4c4b 1b3e
000001d0: 0128 11be 7878 2c3c 8c88 72be dd67 333e
000001e0: 217f 2c3e 2185 73be 79df 2bbe fbb7 df3c
000001f0: d026 7cbd adb0 773d 26c4 fd3a 6f51 e03d
00000200: 1f75 65be 84b3 f43c 7a55 9ebd 169d 153e
00000210: 4692 c9bd 36de 403e 91e3 87be 036e 6ebe
00000220: a968 8abe 7057 673d c2cc 14be 7c21 463d
00000230: 358e 853e b44d 3fbc 1e71 97bd 0a3f 1ebe
00000240: 155f a23d cd5e 903e 426e 933e dd31 83be
00000250: fa97 68be eb63 d6bd 13ea 703e cc4a 8e3e
00000260: 0699 8b3d 1e1a 283d b721 53be 68ce 113e
00000270: bf92 74be 3401 573e bef3 5dbe cde6 653e
00000280: 58d2 83be 782a d43d 2814 68be 72d5 16be
00000290: 6720 cbbd abfd 21be 300d 833e cff3 85be
000002a0: 87bb 8cbd b308 163e 40f5 28be 79f3 54bd
000002b0: 3031 47ba 18e1 51be 3a99 84bc 55a7 64be
000002c0: 1f7d 6bbe 26c1 85be 551f fb3d b5b5 05be
000002d0: 1532 59be 7af5 3e3e fbef d2bc 39ff 43be
000002e0: 1929 8dbd 75b9 0b3e 08d6 b4bd 3dd1 8c3e
000002f0: 515e 713e 0275 f43b 1bde 92be 3d20 76bd
00000300: 280b 48be c5e0 6f3d 71e7 93be 55aa 613e
00000310: d8bd 8cbb f623 3f3e b7bb 8a3e 319b 8ebe
00000320: ae15 913e 985f e3bd 8e7c 3e3e 26fd 353e
00000330: ccbe 88bc 13e5 6a3e a7e0 b3bd bf32 03be
00000340: c92b 46be 64fc 533e 7fcd 8abe 538b 873e
00000350: 89c5 99bd 7b1d 6dbe c9ac 91be 6970 3d3e
00000360: ec0b 9abe 7d75 513e cbdd 41be 101c ad3d
00000370: 3659 483e 95cf 38be 8db4 063e b879 8dbd
00000380: 28df 64be 2405 553d 8902 18be fd0c 4fbd
00000390: bd2a 583e 01e1 363e c3ee 523d 913c 953e
000003a0: 2f79 653e c89c 71be c3e7 18be 50b1 3d3e
000003b0: ded2 173e 944d 133d bf13 20be 3311 b03c
000003c0: 2a1b 863e 9dcb 793d dbe2 073e 664b 7dbe
000003d0: f5b1 b63d 05d4 443e 3bba d3bc 1bcb 093e
000003e0: ef90 8dbc acb0 6a3d ffe8 a43d ddae 3a3e
000003f0: 9009 78be 941f dbbc 2fb3 ff3d da3c 843e

linear2.weight f4 [3, 256]
-0.0034981328 -0.036036972 -0.042274483 0.041149653 -0.0063779475 -0.06897763 0.007982531 0.007963905
-0.06480269 0.013865385 -0.015546639 -0.025721222 -0.055462178 -0.022478426 -0.006099955 0.06662547
-0.012313047 -0.05281874 -0.046141893 -0.0014072665 0.024765193 -0.029418796 0.0074725864 -0.08317115
-0.05662131 -0.078414336 0.018312164 -2.2791326e-05 -0.07867636 0.015754122 0.019874563 0.0031810966
0.023193229 0.016323052 0.017255 0.024511 0.0034057463 0.013358354 0.013095038 -0.031374667
-0.048230764 0.017746795 -0.053881552 -0.07562442 0.01796801 -0.09806295 -0.032403275 -0.060138367
-0.0032131046 0.03785262 0.0096363425 -0.027996458 -0.033142723 -0.056421973 -0.0073545724 0.01139571
0.030468281 -0.00230054 0.020218313 -0.042564325 -0.08290293 -0.041098338 -0.039334964 -0.003440963
-0.02034902 0.04205979 0.014397344 0.010641261 -0.00051634124 0.024036124 0.006894067 0.024940278
0.09539704 -0.059980925 -0.061352797 0.033782292 -0.023901666 -0.025281766 -0.0011646717 -0.0027592438
0.020863868 0.03330509 -0.0058037825 -0.00066912756 0.022740835 0.031394307 0.06583048 -0.00767053
0.01816143 -0.051251933 0.024893258 0.06877342 0.059068207 -0.040165078 0.065420136 -0.014961257
-0.052094325 -0.04275562 -0.044951107 -0.08363662 0.022766542 -0.014405384 -0.062142212 -0.07141388
-0.010936945 -0.011925829 0.024173116 0.0057274923 -0.023342011 0.06031001 -0.007217256 0.0062430785
-0.008674541 -0.01523306 0.052145664 0.030765058 0.01686936 -0.014965061 -0.015965752 -0.084486865
-0.070465155 -0.048450656 -0.0047222143 -0.010266334 0.008112307 0.035366826 0.03543397 0.09425505
0.04684563 -0.04347361 0.039525695 -0.057159133 -0.08415642 -0.02900695 0.047190517 0.05758416
-0.08091605 -0.044662215 -0.04691558 -0.06518045 -0.05739762 0.028183104 -0.04557188 -0.055821635
-0.030530045 -0.011295114 -0.09101728 0.030289166 -0.0049213246 -0.05017149 -0.031657796 -0.012166771
-0.009346879 -0.054773863 -0.04128722 0.031841032 -0.034514923 -0.034018133 -0.012179854 0.03326084
0.022759313 0.046623304 0.0646475 -0.040545028 -0.088891044 -0.04913733 0.018553732 -0.002332514
0.04468442 -0.039306913 0.017990423 0.01638994 -0.04282891 -0.010179008 -0.10050661 -0.02491962
-0.0611832 -0.025342979 0.0044560097 -0.010791421 -0.017324116 -0.045973312 0.06279173 -0.05383482
-0.0909817 -0.054708272 -0.07586989 -0.07764369 -0.06766475 0.0042925538 -0.00885422 -0.073998116
-0.033477448 0.040027235 -0.019440152 0.015903922 -0.03671185 -0.053074744 -0.08790151 -0.022002246
-0.009812077 0.009254934 0.017713517 -0.025371267 -0.06981352 -0.071278065 -0.04482927 -0.0017656545
0.03671008 -0.05319409 0.011422268 -0.05515929 -0.033159547 0.019745668 -0.012344804 0.025937943
-0.051589534 -0.009600447 -0.051029228 -0.052001007 -0.017812451 -0.05738075 0.026783263 -0.10138406
-0.07227076 -0.013959887 -0.05498291 -0.10633521 -0.031833623 -0.015774261 -0.002424031 -0.064784676
-0.093180604 -0.03787051 0.011528058 -0.012393275 0.012464525 -0.036535166 -0.092428885 -0.05538974
-0.010857617 -0.014985032 -0.06459941 0.04316228 -0.03808821 0.01759669 -0.07480455 -0.04580014
0.005616525 -0.07076891 -0.105999656 -0.083716564 -0.0031388446 -0.039293475 -0.09304423 -0.015894061
00000000: ee40 65bb 819b 13bd 0228 2dbd 8a8c 283d
00000010: 1afe d0bb 2544 8dbd 29c9 023c 0a7b 023c
00000020: 46b7 84bd a42b 633c 55b7 7ebc 50b5 d2bc
00000030: 4f2c 63bd ad24 b8bc 22e2 c7bb ef72 883d
00000040: aabc 49bc 7758 58bd 48ff 3cbd 0774 b8ba
00000050: 60e0 ca3c b0ff f0bc 99dc f43b a355 aabd
00000060: bfeb 67bd b297 a0bd 6403 963c 0030 bfb7
00000070: 1221 a1bd ca0e 813c fbcf a23c f279 503b
00000080: baff bd3c ecb7 853c 5c5a 8d3c 4bcb c83c
00000090: f132 5f3b ffdc 5a3c 928c 563c b982 00bd
000000a0: 9f8d 45bd ba61 913c e7b2 5cbd fae0 9abd
000000b0: a631 933c 3ad5 c8bd 4cb9 04bd a653 76bd
000000c0: f392 52bb 590b 1b3d c0e1 1d3c d458 e5bc
000000d0: aac0 07bd ba1a 67bd a0fe f0bb 12b5 3a3c
000000e0: 9e98 f93c a8c4 16bb e0a0 a53c ee57 2ebd
000000f0: 03c9 a9bd bb56 28bd b31d 21bd c881 61bb
00000100: fdb2 a6bc e346 2c3d d6e2 6b3c af58 2e3c
00000110: 135b 07ba 68e7 c43c a0e7 e13b 8e4f cc3c
00000120: 865f c33d 8fae 75bd 124d 7bbd 4d5f 0a3d
00000130: 6dcd c3bc b51b cfbc e6a7 98ba 6ed4 34bb
00000140: b4ea aa3c eb6a 083d a82d bebb 6468 2fba
00000150: fd4a ba3c 5197 003d 21d2 863d 1259 fbbb
00000160: 47c7 943c 8ced 51bd f2ec cb3c 14d9 8c3d
00000170: 81f1 713d 2384 24bd fefa 853d 0f20 75bc
00000180: dc60 55bd 8420 2fbd a71e 38bd ad49 abbd
00000190: e680 ba3c 8f04 6cbc d588 7ebd 7141 92bd
000001a0: df30 33bc 8d64 43bc b306 c63c b0ad bb3b
000001b0: bf37 bfbc a107 773d bb7e ecbb bd92 cc3b
000001c0: a91f 0ebc 1694 79bc b196 553d 0107 fc3c
000001d0: 9d31 8a3c 0430 75bc 9cca 82bc 7307 adbd
000001e0: 0950 90bd 3274 46bd cebc 9abb 2034 28bc
000001f0: 7be9 043c cedc 103d 3623 113d cb08 c13d
00000200: 34e1 3f3d 6211 32bd b2e5 213d b21f 6abd
00000210: 335a acbd fc9f edbc d84a 413d 5edd 6b3d
00000220: 50b7 a5bd baef 36bd 8d2a 40bd 547d 85bd
00000230: c419 6bbd 41e0 e63c 94a9 3abd 3aa5 64bd
00000240: 251a fabc 240f 39bc 4567 babd fc20 f83c
00000250: 1043 a1bb 9f80 4dbd 9bab 01bd 2357 47bc
00000260: a723 19bc 8f5a 60bd ca1c 29bd be6b 023d
00000270: 855f 0dbd 9956 0bbd 038e 47bc 853c 083d
00000280: bd71 ba3c 14f8 3e3d e965 843d 8b12 26bd
00000290: 820c b6bd 3a44 49bd fffd 973c 17dd 18bb
000002a0: 0307 373d 4900 21bd a760 933c 3244 863c
000002b0: 5e6d 2fbd dbc5 26bc 69d6 cdbd 3b24 ccbc
000002c0: 3c9b 7abd 149c cfbc b803 923b 80ce 30bc
000002d0: 4eeb 8dbc 834e 3cbd f398 803d e681 5cbd
000002e0: 9d54 babd c815 60bd ac61 9bbd a803 9fbd
000002f0: d193 8abd 8da8 8c3b 4a11 11bc 538c 97bd
00000300: a61f 09bd 99f3 233d f440 9fbc f148 823c
00000310: 2a5f 16bd e764 59bd b505 b4bd 0e3e b4bc
00000320: d5c2 20bc 02a2 173c f01b 913c 67d7 cfbc
00000330: 64fa 8ebd 3cfa 91bd e69e 37bd 896d e7ba
00000340: 4f5d 163d 0ce2 59bd 7724 3b3c b5ee 61bd
00000350: 4ed2 07bd abc1 a13c dc41 4abc cf7b d43c
00000360: 8c4f 53bd 314b 1dbc 0604 51bd 02ff 54bd
00000370: 6beb 91bc 1408 6bbd 9368 db3c 72a2 cfbd
00000380: b102 94bd 03b8 64bc c335 61bd 46c6 d9bd
00000390: f963 02bd 0639 81bc 7edc 1ebb d4ad 84bd
000003a0: 79d5 bebd 1c1e 1bbd 2ee0 3c3c 2a0d 4bbc
000003b0: 0238 4c3c e6a5 15bd 5b4b bdbd 5ae0 62bd
000003c0: 25e4 31bc c883 75bc b24c 84bd eeca 303d
000003d0: 6202 1cbd ef26 903c 2133 99bd ed98 3bbd
000003e0: d40a b83b 4aef 90bd 5916 d9bd 9773 abbd
000003f0: 13b5 4dbb 32f2 20bd f98d bebd 4334 82bc

linear2.bias f4 [3]
0.008807082 -0.051367495 -0.01920819
00000000: 944b 103c b966 52bd 7e5a 9dbc
