model/model.pth (torch, 16787 bytes, 4 tensors)

linear1.weight f4 [256, 11]
000000 a8 cc 42 3e 3f 6a 10 3d bd db 8c be a1 2f 8a be
       0.19023383 0.035257574 -0.27511397 -0.26989463
000010 b1 74 66 bd 06 e4 9c 3e 7a 1a 52 be b6 9e 7e 3e
       -0.05626363 0.30642718 -0.20517913 0.24865231
000020 30 d7 e1 bc b8 39 7e be 16 53 76 be 26 8a 0e be
       -0.02756843 -0.24826705 -0.24055132 -0.13919887
000030 a8 59 05 be 82 ab 8b be 7e 68 4f be 75 53 4d 3e
       -0.13022482 -0.27279288 -0.20254704 0.20051368
000040 80 22 61 3c d3 98 50 bd de 2e 82 3e 88 1a 00 be
       0.013741136 -0.050926995 0.25426382 -0.12510121
000050 8d 47 2b 3e bb 85 1b be 70 62 11 be 34 4a 78 3e
       0.16726513 -0.15187733 -0.14197707 0.24247056
000060 f4 34 7a 3d 36 d5 2c be de c9 5e 3e 0d 2d 71 3e
       0.061085656 -0.16878209 0.21756694 0.23552342
000070 87 f0 af be 5a 32 98 be 21 86 8b 3e 62 b9 0e 3e
       -0.34363195 -0.29725915 0.2725077 0.13937905
000080 67 8e 1f be f8 54 02 3e 82 02 fa bd 79 4a 95 be
       -0.15581666 0.12727726 -0.122075096 -0.2915838
000090 d9 60 07 bd c2 3e 5d be 68 2c 94 be a8 5b ed bd
       -0.033051345 -0.21605971 -0.2894013 -0.11589748
0000a0 74 3b 86 3d 9b cd 16 3d f6 0b 24 be 00 2b b3 bb
       0.065543085 0.036817174 -0.16020188 -0.0054677725
0000b0 e6 c3 df 3c a2 e9 2c 3d 8a ac a4 bd 47 62 eb 3d
       0.027315091 0.042214997 -0.08040722 0.11493354
0000c0 6f 5e 4e be 33 ae c5 3d 59 6a 8e 3e a1 44 ca bd
       -0.20153211 0.096523665 0.27815512 -0.09876371
0000d0 df d9 23 3e 1a 08 5d 3e dd c7 51 3d 41 07 57 3e
       0.1600108 0.21585122 0.051215995 0.20998861
0000e0 24 6e 6e bd 54 6c 52 be ed 40 12 bd d5 1b 78 be
       -0.058210507 -0.20549136 -0.03570645 -0.24229367
0000f0 03 3b 88 be 0d f7 2f 3d 54 d0 3a bd 9d 30 81 3e
       -0.26607522 0.042960215 -0.045608833 0.25232401
000100 ea 54 09 3e 04 ea 05 3e bc 13 62 be 4e 0c 30 3e
       0.13411298 0.13077551 -0.2207784 0.17192194
000110 50 ae 16 be 50 66 97 be b6 40 c7 bd dd 8d 50 be
       -0.14714932 -0.29570246 -0.097291395 -0.20366617
000120 be e2 57 3e af 0c 08 3e dd ca 8e 3e 4e cc f4 bd
       0.21082589 0.13286088 0.27889147 -0.119530305
000130 f3 be 20 be 06 6c 5d be bf 91 0d be b8 a1 05 3e
       -0.15697841 -0.21623239 -0.13825129 0.13049972
000140 56 22 a0 3d 2f 36 1a 3d 50 fa 39 be d6 c9 f4 3d
       0.07819049 0.03764933 -0.18161893 0.1195256
000150 df 4f f6 3d e6 a3 45 be 9e 81 88 be 81 97 64 3c
       0.12026953 -0.19300804 -0.2666139 0.013952137
000160 06 d5 d5 bd 06 47 2b 3e c2 99 95 bd 6a 99 8d 3e
       -0.104410216 0.16726312 -0.073047176 0.27656108
000170 4a a4 d1 bd 01 6c b9 3c 4e 6e 82 be ee d3 8e be
       -0.10236414 0.022634508 -0.2547478 -0.27896065
000180 72 aa cc bc 22 ed 72 bb 39 fc 12 3e 20 85 dc bc
       -0.024983618 -0.0037067612 0.14354028 -0.026918948
000190 da f7 9c be 5b 36 2f 3e c6 69 03 be 3b 21 3d 3d
       -0.30657846 0.17110579 -0.12833318 0.04617427
0001a0 dc 79 df 3d 5e 11 99 3e 7f c5 8a 3e 6b 74 d0 3b
       0.10911915 0.29896063 0.27103803 0.0063615344
0001b0 8c e1 cb 3d d4 2a 95 be b0 d0 05 bd 9a 7d 8f 3d
       0.09955129 -0.29134238 -0.032669723 0.070063785
0001c0 91 c4 f2 3c 88 4e a5 bc c2 b8 80 be ba ce 32 3e
       0.029634746 -0.020179048 -0.2514096 0.17461672
0001d0 5d 38 3e be 3f e6 6d be e2 24 ff bd 24 11 f8 3d
       -0.18576188 -0.23232363 -0.12458207 0.12112644
0001e0 83 dd 2f 3d 44 46 02 3c c6 19 f6 bd 94 48 8d bd
       0.04293586 0.007951323 -0.12016635 -0.06898609
0001f0 0f 90 00 3d eb e8 b8 be c5 bc a8 3d e8 61 57 3e
       0.031387385 -0.36115202 0.0823913 0.21033442
000200 99 1c 23 3d 7a be 35 3e 9f 4b ab be b1 a8 db 3d
       0.039822195 0.17748442 -0.33456132 0.10725535
000210 72 a7 e4 3d c4 78 6b be 36 ef 55 3e 7a f6 26 bc
       0.1116475 -0.22995287 0.20892033 -0.0101906005
000220 77 b0 41 be 40 73 42 be b2 09 36 be 2a 66 94 bd
       -0.18914972 -0.18989277 -0.17777136 -0.07246049
000230 1c ff 5f 3e 54 97 8b be 1f 1a 81 3d 5a 70 16 be
       0.2187466 -0.27263892 0.0630381 -0.14691296
000240 1f 15 22 bd ba 29 69 3e b6 15 29 be 8b 5b f9 bc
       -0.039570924 0.22769824 -0.16512188 -0.030439159
000250 22 a8 de bc c7 01 40 3b c1 4d 5a 3e c1 15 b1 3e
       -0.027179781 0.0029297934 0.21318723 0.3458691
000260 5e 32 57 3e 8c f1 03 be 7c 1f 06 3e 03 81 48 3e
       0.21015307 -0.12885112 0.13097948 0.19580464
000270 f0 ed 0a 3d 2c 9b d5 3d d5 b8 8c 3e 86 39 96 be
       0.03391832 0.10429987 0.27484766 -0.29340762
000280 ba ba 7a 3d 1d 0e 8a be 08 81 4c 3e f4 46 12 3e
       0.061213233 -0.26963893 0.19971097 0.14284879
000290 2b 4d 83 3c e4 c0 27 3e e8 e6 41 be 94 80 02 be
       0.016028007 0.16382176 -0.1893574 -0.12744361
0002a0 8f 40 37 bd 63 60 05 be 19 01 68 3e 32 a6 99 bc
       -0.044739302 -0.1302505 0.22656669 -0.018756006
0002b0 8c 3b 14 3e 87 ef 7d 3e 38 e0 b3 bd 43 12 1c bb
       0.1447584 0.24798404 -0.08783001 -0.0023814596
0002c0 d6 f7 a1 3d 70 33 6a be 92 25 7e 3d 03 54 7b be
       0.07908599 -0.22871184 0.06204755 -0.24543767
0002d0 c3 2c 8d 3e c7 36 64 be 00 19 91 be bf 65 5c 3e
       0.27573213 -0.22286521 -0.28339386 0.21523188
0002e0 ce 44 b5 3d 3b af 9a be 32 8f 9a 3e f5 dd 4a bd
       0.08851014 -0.30211815 0.30187374 -0.04952808
0002f0 52 c6 78 be 9c 59 37 be 26 9e 92 3d c5 0c 47 bd
       -0.24294403 -0.17905277 0.07159071 -0.048596162
000300 9d 37 9b be ae de 2f 3e af e7 09 be 1c 24 f7 3d
       -0.30315867 0.1717479 -0.13467287 0.12067434
000310 ca e2 11 be 0d 43 8c 3e 3d da 92 3e e0 93 24 bc
       -0.1424667 0.27394906 0.28682128 -0.010045022
000320 6a 60 ae bd bf 3f 5c be 1e 7c 89 bd a6 88 0e be
       -0.08514483 -0.21508692 -0.067131266 -0.13919315
000330 06 48 0a be 18 fd 86 be 7d d6 10 bd 09 88 58 bd
       -0.13504037 -0.2636497 -0.035360802 -0.05286411
000340 e0 d8 02 bc 9b 29 25 3e b2 64 82 be 98 5c c7 bd
       -0.007986277 0.16129152 -0.2546745 -0.09734458
000350 5a fd 2e 3e d1 17 77 3e 24 95 9a bd 6a 3a 40 be
       0.17088833 0.24130179 -0.075479776 -0.18772283
000360 a9 76 3a 3e 75 ee 27 3e 1b 79 cc 3d 79 85 19 be
       0.18209328 0.16399558 0.099840365 -0.14992322
000370 bc de 45 be 54 c0 c4 bd 7b 3d 3b be fc 43 82 be
       -0.19323248 -0.09606996 -0.18285172 -0.25442493
000380 09 4f f9 3d ce 40 15 be 92 f3 f3 bd 5e 9c ab 3e
       0.12173278 -0.14575502 -0.11911692 0.33517736
000390 19 37 28 3e 83 49 3e 3e 0b 63 6e be da 16 90 3c
       0.16427268 0.1858273 -0.2327997 0.017589021
0003a0 b5 8e 11 be fd b5 a7 bd 05 84 50 be c4 76 2e 3d
       -0.14214595 -0.081890084 -0.20362861 0.042593732
0003b0 0d eb 66 3e 23 6f 18 bd 05 60 1f 3d 83 12 68 be
       0.22550602 -0.037215363 0.03890993 -0.22663312
0003c0 1c 32 80 bd 8a 86 2b 3e e8 73 96 be 66 ef 60 3e
       -0.062595576 0.16750541 -0.29385304 0.21966323
0003d0 a5 7d a4 3d d9 26 37 3e 64 60 22 3d 10 f0 81 be
       0.08031777 0.17885913 0.039642707 -0.25378466
0003e0 6b 1b 6d bd 15 f9 8a 3e 4c b0 63 3e 6c 8d 55 be
       -0.057887476 0.2714316 0.2223522 -0.2085473
0003f0 97 f4 08 bd 3b 14 e8 3d 0c b8 d8 bd 88 e2 53 be
       -0.033436384 0.11331984 -0.10581979 -0.20691884

linear1.bias f4 [256]
000000 e9 3e 1b be d4 22 41 be d4 be fa 3d 9a cc 12 be
       -0.15160717 -0.18860942 0.12243429 -0.14335862
000010 3e 3e d1 3d 1a eb 0f 3e 66 e8 2b bd ed 24 62 3e
       0.1021695 0.14054528 -0.04196968 0.22084399
000020 74 e0 1b 3d b2 9a 5d be 5b 6b 54 bd 2b 2e 82 3c
       0.038055852 -0.21641043 -0.051860195 0.015891155
000030 b3 d8 a9 be 4d ba 66 bd 26 40 70 3e 42 18 2f 3d
       -0.3317314 -0.056330014 0.2346197 0.042747743
000040 4c 7f e4 3d 23 23 f5 bc aa db a3 bc 90 90 ab be
       0.111570925 -0.029923981 -0.020002205 -0.3350873
000050 5a 58 79 bd ae 9c 83 3e 1b 9c 06 be aa a7 be bd
       -0.060875274 0.25705475 -0.13145487 -0.09309323
000060 b7 ce 72 bd 95 7d 87 3e e7 da f0 3c df dc 46 3e
       -0.05927917 0.26463 0.029401256 0.19420193
000070 23 f8 63 bb 90 cb ac 3d 9c f6 14 3e 97 91 0e 3d
       -0.0034785352 0.08437264 0.14547199 0.034806814
000080 56 4c ce bd 54 03 27 3e 18 d2 8a be e7 5a ae 3d
       -0.10073154 0.16309863 -0.27113414 0.08513432
000090 42 9d 54 3e 5d 54 46 3e b6 47 51 be a1 72 44 be
       0.20763114 0.1936812 -0.20437512 -0.19184352
0000a0 59 de 97 bd 7b 5a c8 bd 3c de 80 bd d9 1e 18 bd
       -0.07415456 -0.09782883 -0.06292388 -0.037138794
0000b0 58 0c 5d 3e c5 e0 f0 bd f8 d5 74 3e cb f4 69 be
       0.2158674 -0.117616214 0.23909748 -0.22847287
0000c0 3d a5 e1 bc c2 c5 8f 3d 20 b2 77 be db c5 0f 3e
       -0.027544612 0.07020141 -0.24189043 0.1404032
0000d0 7c 0b 21 3e 1d 3f 31 3e 7a 04 1e be c3 79 d3 3d
       0.15727037 0.17309232 -0.15431395 0.103259586
0000e0 d5 cd 9b 3d 17 aa 19 3e 3b 7e d6 3d e6 aa 62 be
       0.07607619 0.1500629 0.10473295 -0.22135505
0000f0 af ca 7e be c7 f5 20 be 8c 7a cf 3d b7 27 7a 3e
       -0.24882005 -0.15718757 0.10130796 0.24429213
000100 ba 3d 62 be 17 c3 16 bc 61 9a 09 3e c6 1d 4d 3c
       -0.2209386 -0.0092017865 0.13437797 0.012519306
000110 17 a1 8b be b7 46 72 3e 90 58 53 be bd 5a 03 bc
       -0.2727134 0.23659788 -0.20639253 -0.008017239
000120 c5 97 a5 be 9a 59 a1 be 30 2a d1 bd 91 71 f4 bd
       -0.32342353 -0.31513673 -0.10213125 -0.119357236
000130 77 3e 1d 3e 38 9f 6c 3e 08 45 a6 be 87 34 48 3e
       0.1535586 0.23107612 -0.32474542 0.19551288
000140 4e f1 9b 3d 77 b8 b9 bd e5 d6 19 be 94 bc 84 be
       0.076143846 -0.09068387 -0.15023382 -0.25925124
000150 bb 2f 89 be 93 9b a0 bd ea df 8b 3e af d1 f7 3d
       -0.26794228 -0.078421734 0.2731927 0.12100541
000160 64 9a 5f 3d 27 ec 9e bc 58 e5 6b bc 6b 26 4b 3d
       0.054590598 -0.019399716 -0.0143979415 0.049597185
000170 51 7c ef 3d 15 37 68 3e 40 e4 fe 3d 84 0f fc 3d
       0.11693633 0.22677262 0.12445879 0.12307647
000180 ea f0 1f 3e 60 d0 1e 3e 99 1f fb bd c9 27 9b 3c
       0.15619245 0.15509176 -0.12261886 0.01893987
000190 b5 5c 36 be 5e 31 30 bd fe 4b 82 3e c0 6e 53 3e
       -0.17808802 -0.04301583 0.25448602 0.20647717
0001a0 12 e4 80 3e 18 bf 44 3e a7 73 96 bd 72 33 79 3e
       0.25174004 0.19213521 -0.07346278 0.24336031
0001b0 1c 11 66 3d 43 c8 6a 3e 5a 8a 67 be 26 53 29 3e
       0.05616866 0.22927956 -0.2261137 0.16535625
0001c0 cd 7f 67 be 88 7a f8 bd 76 3d 9e bc 1a 51 95 3e
       -0.22607346 -0.12132746 -0.019316416 0.29163438
0001d0 66 8d 7a bd 83 3b ae bd 88 9c 84 bd 23 13 0e 3e
       -0.061170004 -0.08507445 -0.064751685 0.13874488
0001e0 f4 f5 b8 3d 28 f8 ce bd d1 96 97 be 1b ec 74 be
       0.09031287 -0.10105926 -0.2960725 -0.23918192
0001f0 a2 b7 46 be 44 98 e6 3d 67 51 87 3e 87 d8 9b bd
       -0.19405988 0.11259511 0.26429293 -0.07609659
000200 9e 2f 51 bd 3e e7 79 be 62 e2 5c 3d 3c 18 50 3e
       -0.051070802 -0.24404618 0.053926833 0.20321745
000210 c2 0a 80 3c e7 08 37 bd ae 3e 0b be 42 10 a6 3d
       0.01563013 -0.044686224 -0.13598129 0.0810857
000220 dd 7b 01 be c1 19 90 be 7f 2f 52 bd 49 6f c1 bd
       -0.12644906 -0.2814465 -0.051314827 -0.09445054
000230 94 01 73 3e dd e9 7f 3e 46 e8 d6 bd bb 34 c5 3c
       0.23731071 0.24991556 -0.104935214 0.024072995
000240 e9 25 5d 3e 76 00 0c be b6 a7 c8 3d 3d b6 3b be
       0.21596493 -0.13672051 0.09797613 -0.18331237
000250 93 f9 dd 3d 1c ad 9f be 49 c0 8c 3e 58 c2 55 3d
       0.10838618 -0.3118676 0.27490452 0.052187294
000260 c8 c5 7b be 42 e2 15 be f8 79 4f be d6 4f 0b be
       -0.24587166 -0.14637092 -0.20261371 -0.13604674
000270 32 e8 84 3e a3 78 5e 3b 06 6c 2d 3b dd aa 1d 3e
       0.259584 0.0033946417 0.0026462092 0.1539721
000280 45 1a 76 3e dd 57 37 3c c9 31 83 bd 98 b2 94 be
       0.24033459 0.011190382 -0.0640598 -0.29042506
000290 d2 9e 38 be 6e 71 4c 3e 87 b9 6b 3e 7d 1b 75 3e
       -0.18029335 0.19965145 0.23019992 0.23936267
0002a0 ff df 48 be 66 49 59 3e ba e2 9d bd 07 e1 85 be
       -0.19616698 0.21219406 -0.0770926 -0.26148245
0002b0 f2 cc 60 3e 93 c9 58 be d8 82 57 3e a5 31 a8 3d
       0.2195318 -0.21170644 0.21046007 0.08212594
0002c0 f5 eb a5 3d f2 27 a4 be ce 09 10 3d c9 b3 eb bd
       0.08101646 -0.32061726 0.0351656 -0.11508901
0002d0 d2 ad 09 be 59 61 66 3e a4 1f 01 be 4f c6 33 3e
       -0.13445213 0.22498073 -0.12609726 0.17556117
0002e0 07 00 31 be 3d ef 27 be b2 16 83 be 14 3d 84 be
       -0.17285167 -0.16399856 -0.25603253 -0.2582785
0002f0 99 7f 6a 3e e6 0d 90 be ae cb ef 3c 22 ba 9c 3e
       0.22900237 -0.28135604 0.029271927 0.30610758
000300 ce 7b 8c bd 85 ee 10 3e 89 7b 78 3e 96 ce d9 3d
       -0.06859551 0.14153488 0.24265875 0.10635106
000310 f6 9c a7 be 31 dc bc 3d d5 87 6e be dc da 83 3d
       -0.3273694 0.09221686 -0.23294003 0.064382285
000320 ca 6d 50 3e 37 92 a5 3d 1e d4 e2 3c 87 7b d5 3d
       0.20354381 0.08084529 0.027689036 0.104239516
000330 9a 71 8b 3d fc fb d7 3c 1a 8f 44 3e 87 25 11 bd
       0.06808777 0.026365273 0.19195214 -0.03543618
000340 04 59 3b be a1 0a 99 3e 49 d1 34 be 67 30 a6 3d
       -0.18295676 0.29890922 -0.17657961 0.08114701
000350 6a ed c7 bd 45 13 bf 3d a9 d2 1b bd 17 08 7c be
       -0.0976208 0.09329847 -0.038042698 -0.24612461
000360 0a 65 03 3e 97 6b cc 3d 22 c5 a2 3e d4 c1 61 3d
       0.12831512 0.09981459 0.31791025 0.05511649
000370 b4 a9 20 be 67 8c 14 be b9 7b bf 3d 9f 79 14 3e
       -0.15689737 -0.14506684 0.0934977 0.1449952
000380 9a 1d 00 be 6d 70 9b 3e 18 d8 46 be 7c 3e 80 3e
       -0.12511292 0.30359212 -0.1941837 0.25047672
000390 38 30 d9 3d ec e3 f6 bd df 78 ff 3d a5 c6 8a be
       0.106049 -0.120551914 0.12474226 -0.2710468
0003a0 e7 55 70 3c 86 f2 83 bd ed 6d 4c be 52 86 4c 3e
       0.014668918 -0.06442742 -0.19963808 0.19973114
0003b0 ea 58 f9 3d 01 fc a7 be a7 81 0f 3e 0d b8 31 be
       0.12175162 -0.3280945 0.14014302 -0.17355366
0003c0 04 e6 51 be 07 b8 9d 3d 44 72 06 3e a4 f3 12 bd
       -0.204979 0.07701116 0.13129526 -0.035876885
0003d0 fc e7 8e be ab 81 f4 bd af 1c a6 3e 4f 8a a9 3d
       -0.27911365 -0.11938795 0.3244376 0.082783334
0003e0 f1 6e 91 be bd 9c 4d be 1a c5 9a be 45 d3 74 bd
       -0.28404954 -0.20079322 -0.30228502 -0.059771795
0003f0 1a 70 03 3d b5 4c bb 3d b6 96 15 3e 5e fb 63 3e
       0.03208933 0.0914549 0.14608273 0.22263858

linear2.weight f4 [3, 256]
000000 a0 3e 44 3d f9 95 af 3c 11 fe 1b 3c dc 5a 89 bc
       0.047911286 0.021433817 0.009521023 -0.016766958
000010 2b 0e 83 bd 0a 29 5c bd d8 8e f8 3c ae 93 1b 3d
       -0.06399187 -0.053750075 0.03034155 0.037982635
000020 65 96 1a 3d 5a c4 2e bc f3 bc 84 3d 76 0e 50 bb
       0.037741084 -0.010666931 0.06481352 -0.00317469
000030 26 ab 27 bc 39 2a 50 bd 63 48 fc bb 1b 16 07 3b
       -0.010233676 -0.050821517 -0.007699059 0.002061254
000040 e9 b7 54 bd 90 1d ad bb 28 70 1b bc 4b 95 4d 3c
       -0.051933203 -0.005283065 -0.009487189 0.012547801
000050 fe 54 51 3d 2c d1 90 bc 51 77 6a 3b 21 fc a3 bb
       0.051106445 -0.017677866 0.0035776685 -0.0050044213
000060 00 d2 60 bd cb 73 04 bc bf eb 35 bd ea d9 a1 bd
       -0.05488777 -0.008084248 -0.044414278 -0.07902892
000070 26 77 50 3d ea 4a 60 bd b8 12 3a bd 5b 51 5f bd
       0.05089488 -0.054758944 -0.045428008 -0.054520946
000080 87 71 b4 bd 18 29 8f 3c e3 d6 67 3a ba 0b bc 3d
       -0.08810716 0.01747565 0.00088439713 0.09181924
000090 d2 7c 85 3c bc 10 ce bb e6 df ad 3c 2a 87 49 bc
       0.01629487 -0.006288616 0.021224927 -0.012300292
0000a0 76 58 08 38 7a f8 1f 3c 6a e3 3a bd 1a e9 57 3c
       3.2507312e-05 0.009763831 -0.045627035 0.013178134
0000b0 fa 75 74 bc 88 87 f7 bc 3e 1d 54 bd 2f 5d 6a bd
       -0.014920706 -0.030215994 -0.0517857 -0.057217773
0000c0 30 3b 12 bd 17 72 cd bc 43 0d 5b 3c ca 38 0d 3d
       -0.035700977 -0.025078816 0.013369861 0.034477986
0000d0 d8 83 13 3c 19 1a 46 bd d1 38 9f bd 28 fa 93 bd
       0.009003602 -0.048364732 -0.07774509 -0.07225448
0000e0 6e 78 88 bd 8f 22 df 3c cc d4 b8 3d a3 3e 1a bd
       -0.06663595 0.027238159 0.09024963 -0.03765739
0000f0 02 8c d8 3b bc 1c 1b bc e8 87 58 bd 3c d0 13 bd
       0.006608487 -0.0094673 -0.052863985 -0.03608726
000100 16 1f 69 bd 13 f5 8c bd bf b4 e3 3c 82 1b 02 bd
       -0.05691441 -0.06882682 0.027796147 -0.031764515
000110 1b 6d e3 3d ab 4b 0e bd c7 82 8c bd b9 e3 19 bc
       0.111047946 -0.03474013 -0.06860881 -0.009392672
000120 37 88 4b 3d c5 23 e0 3c fd 06 7b bd 14 75 e4 3c
       0.04969045 0.027360806 -0.06128596 0.027887858
000130 ec dd ae 3c f7 c7 46 bd 04 44 5b bb cf 79 32 bd
       0.021346055 -0.048530545 -0.0033457289 -0.043573197
000140 b7 73 59 3c 45 9f 31 bd 40 53 63 bc 56 25 a7 3c
       0.0132722175 -0.043364782 -0.013874829 0.020403545
000150 70 8b a6 bc 9e 8d 5d bd 90 4f a7 bc e1 ca 23 bc
       -0.02033016 -0.054090135 -0.02042368 -0.009997101
000160 36 52 a4 bc 21 29 e0 bc 99 d7 76 bd 21 21 52 bd
       -0.020058732 -0.027363362 -0.060264204 -0.051301125
000170 86 69 af bd f2 19 53 3d d6 7c c5 3b 9e 87 a1 3c
       -0.08565049 0.051538415 0.0060268445 0.019717988
000180 f0 1e fa 3c 5d bb 30 3b 45 65 d3 3d 6b ad 5a bc
       0.03053233 0.0026967146 0.1032205 -0.01334701
000190 b1 50 6b 3d f3 0e 4c bd 01 a8 a5 3c 42 2d 8b bd
       0.05745 -0.049818944 0.020221712 -0.067957416
0001a0 b3 ad 3f 3c a3 e4 f0 bc 49 2a fe 3b 75 c5 b7 bc
       0.011699128 -0.029405897 0.0077565056 -0.022433022
0001b0 60 12 11 3d 32 03 20 bd 5f fb 10 bd 48 7a 2d bd
       0.035417914 -0.039065547 -0.035395976 -0.042352945
0001c0 d9 e1 53 bc a3 b6 d3 bc 7a e3 2b 3d 43 a5 56 bd
       -0.012932264 -0.025843924 0.041964985 -0.0524037
0001d0 03 dd bd bc fb 6a 30 3c 88 e1 0d bd c6 de 1c bd
       -0.023176676 0.010767694 -0.03463891 -0.03829839
0001e0 a1 b6 29 bd d8 3b 3e 3d dc a8 36 3d 54 8d 64 bd
       -0.041433934 0.04644379 0.04459463 -0.055798844
0001f0 54 b2 f5 3b 5d a9 0e bc 95 3e 7d bd be d6 94 ba
       0.007498065 -0.008707372 -0.06182726 -0.0011355502
000200 28 2d 71 bd e1 73 08 3c b2 8f ad bd d5 f1 f4 bc
       -0.058880955 0.008328409 -0.08474673 -0.02990047
000210 71 9e 31 3b 9c 1f 40 3a eb 64 40 3b 9e 79 43 3b
       0.0027102495 0.0007328929 0.0029357027 0.0029827128
000220 dd 4f 81 3b 11 64 1b bd c7 0d 66 bd c2 1f 93 bc
       0.003946288 -0.037937228 -0.056165483 -0.01795948
000230 de e6 3a bd 72 af bb bc 66 fe 41 bd 84 11 0b bd
       -0.04563033 -0.022910807 -0.047361754 -0.03395225
000240 75 43 42 3d 87 b3 8b 3d df a3 8c bd d5 9e 42 bd
       0.047427613 0.068213515 -0.068671934 -0.047514755
000250 5f 87 04 3d 72 68 1f 3d db 91 02 bd 32 56 d1 bc
       0.032355662 0.038917966 -0.03187738 -0.025553796
000260 78 0c e6 bc ad 09 84 3d 7d 86 bb 3d 23 65 11 3d
       -0.028082117 0.06447158 0.09156511 0.035496842
000270 19 e3 9f 3c b8 41 eb bd a2 89 1e bb d9 3b 17 3c
       0.019517468 -0.11487144 -0.0024190922 0.009230577
000280 8d 85 af 3b 06 00 da 3c 56 21 c7 3c 07 65 9f 3c
       0.0053564967 0.02661134 0.024307888 0.019457353
000290 42 52 b9 bd 53 c6 9f 3b b3 56 72 bd d7 74 e5 3d
       -0.090488926 0.004875937 -0.059164714 0.11203926
0002a0 9a 34 1a bd ad 3b 0a 3d a8 e9 da 3c 3e 57 f9 3c
       -0.03764782 0.033748318 0.026722744 0.030437108
0002b0 f0 f5 5f bd b3 6e cc b9 bd 4e 99 3c e9 e5 14 bd
       -0.054677904 -0.0003899239 0.018714303 -0.036352072
0002c0 31 d2 00 3d e7 ef 85 bc 07 1a 42 bc ad 17 92 3c
       0.031450454 -0.016349746 -0.011847026 0.017833555
0002d0 5d 9c 98 3d 9c 89 fd 3c 37 d0 d3 bb b2 4c 57 bb
       0.07451699 0.030949406 -0.00646403 -0.003285211
0002e0 21 8b 2c bd 8b 3d ef 39 a0 cf b8 3d 56 17 d0 bc
       -0.04212487 0.00045631485 0.09023976 -0.025401752
0002f0 eb ab 87 3c 36 57 7b 3d c7 1b 81 3c 36 ca 39 bd
       0.016561469 0.061362468 0.015760316 -0.04535886
000300 41 e1 6f bc 1a 5e 1a 3d ae 39 fe bc f7 e4 5f bd
       -0.014641107 0.0376874 -0.031033363 -0.054661717
000310 04 86 10 bd 0d f6 a2 bd 6b f7 a6 3c 15 e8 81 bb
       -0.035284057 -0.07957087 0.02038165 -0.003964434
000320 f9 d8 c5 3c 49 d6 ab bc 12 26 d9 3b 4d 1f 66 bd
       0.024151312 -0.020976203 0.006626853 -0.056182195
000330 6e 10 78 bd 68 5c 68 3c 37 e3 2f bd 97 8b 5e bd
       -0.060562544 0.014182188 -0.0429413 -0.054332342
000340 d3 cf 82 bb d9 58 00 3d 11 a7 10 bd 4f b8 17 3d
       -0.0039920597 0.03133473 -0.035315577 0.037041005
000350 57 71 22 bd 0e ab 99 bd 6a 58 72 bd f1 ce 0c bd
       -0.03965887 -0.07503329 -0.05916635 -0.034377042
000360 59 5c 15 3c e2 cf c2 bc e3 fc 4e bd 7c 7f 85 bd
       0.009116256 -0.023780767 -0.05053414 -0.06518456
000370 d8 f8 96 3b 6e d5 63 bd 0d e1 6b bd 35 5d 85 bd
       0.004607301 -0.055623464 -0.057587672 -0.065119185
000380 2e 51 30 bd 94 55 cb 3c 20 3f b5 bc a1 af 23 bd
       -0.04304617 0.02482108 -0.022124827 -0.039962415
000390 b6 12 ab 3b eb ef 11 3c a8 87 95 bd 70 5b 54 bd
       0.0052207364 0.008907299 -0.07301265 -0.051845014
0003a0 92 97 98 bc 43 eb f2 3c d1 dc 15 3d 37 72 1a bd
       -0.018626962 0.029653197 0.03658754 -0.03770658
0003b0 8a 7e 9b 3c 43 9d 6b bc 60 e3 da bc 33 d1 e7 bb
       0.018981237 -0.014380756 -0.026719749 -0.007074499
0003c0 a3 89 04 bd fd 68 0e 3d c3 ca 1b 3e 2e c0 ed 3b
       -0.032357823 0.034768093 0.15214066 0.0072555756
0003d0 76 49 68 bd 0d 67 77 bd 1e 21 b6 bd 29 d0 4b bd
       -0.056710683 -0.06040101 -0.08893035 -0.049759064
0003e0 70 5c e5 3b 95 e3 f7 ba 97 56 44 3c 61 d3 1a 3d
       0.006999545 -0.0018912429 0.011983535 0.037799243
0003f0 90 3e 7b bd d4 1f 87 3c 52 4c 06 bd 1f b5 2a bd
       -0.06133896 0.016494669 -0.03278763 -0.041676637

linear2.bias f4 [3]
000000 f9 32 06 bc 47 7c a5 bd 51 d9 ab bd
       -0.008190864 -0.08080345 -0.08391059
