model/model.pth (torch, 16787 bytes, 4 tensors)

linear1.weight f4 [256, 11]
0.21783811 0.021116018 -0.27511397 -0.26989463 -0.050554127 0.30592752 -0.20517913 0.2596732
-0.02756843 -0.27964184 -0.20735127 -0.14718834 -0.11778973 -0.27279288 -0.20572163 0.2094213
0.03313332 -0.05201189 0.25764686 -0.12411864 0.17186406 -0.1739722 -0.124885485 0.21511889
0.096161574 -0.14691 0.21912722 0.272928 -0.29853553 -0.28655222 0.29786128 0.1637425
-0.056174703 0.16800472 -0.122075096 -0.2915838 0.007676184 -0.21605971 -0.2894013 -0.11589748
0.065543085 0.07754472 -0.13153414 -0.0054677725 0.014442574 0.07267848 -0.1259845 0.11269426
-0.21212456 0.09021736 0.2679104 -0.10769615 0.11619145 0.19992909 0.04810922 0.16809249
-0.07602635 -0.1947821 -0.009390652 -0.26648223 -0.24703602 -0.049771007 -0.052908543 0.19848889
0.14667694 0.076079614 -0.20619178 0.15794551 -0.1155999 -0.29570246 -0.097432256 -0.21892011
0.2071542 0.13194259 0.28138798 -0.10726918 -0.19497833 -0.18709257 -0.15262909 0.10615579
0.071622506 0.0998612 -0.16625637 0.09417702 0.12017763 -0.20836619 -0.27924576 0.039996125
-0.06575692 0.15079427 -0.047181726 0.27739 -0.094677374 0.029528467 -0.26818368 -0.2735537
-0.020839155 -0.026721021 0.17882386 -0.03552235 -0.2934954 0.16909224 -0.11306593 0.028664706
0.13000087 0.30142277 0.28833997 -0.010516971 0.1151185 -0.24460708 0.024840117 0.0563398
0.029482633 0.04550582 -0.2514096 0.1572716 -0.18576188 -0.22917151 -0.09364861 0.08836323
0.09540933 0.036981918 -0.111230075 -0.023878634 -0.015616357 -0.24945906 0.12447235 0.23843439
0.079855375 0.22925842 -0.2909655 0.12961718 0.120812416 -0.22995287 0.22867602 0.02375409
-0.18914972 -0.17013708 -0.17777136 -0.07246049 0.25316018 -0.27263892 0.08002281 -0.15366383
-0.06358987 0.19763519 -0.1702996 -0.019198941 -0.009971926 -0.025649983 0.22228332 0.28327578
0.19854301 -0.090599835 0.13791792 0.22028571 0.051555987 0.12693335 0.27327365 -0.28129137
0.08513393 -0.24456543 0.23920798 0.1817938 0.0912474 0.19884358 -0.17733124 -0.0998828
-0.040502187 -0.14447571 0.26064712 0.007239448 0.17092928 0.2922222 -0.0658622 0.036882423
0.045702696 -0.21048065 0.08349377 -0.25527796 0.28182757 -0.27060127 -0.25679874 0.21003774
0.09636241 -0.3057573 0.27063882 -0.027090997 -0.24294403 -0.17905277 0.04567998 0.04627742
-0.2848703 0.16991653 -0.09254473 0.14246893 -0.12590277 0.2896725 0.30133373 -0.010045022
-0.08514483 -0.21484774 -0.067131266 -0.13919315 -0.120481074 -0.2636497 -0.020848423 -0.038304806
-0.007986277 0.1292105 -0.2546745 -0.07437422 0.19396982 0.26213613 -0.075479776 -0.18772283
0.20927325 0.17065385 0.1208614 -0.10999705 -0.15948738 -0.12225737 -0.13896747 -0.28798988
0.12397794 -0.17380771 -0.1356608 0.29392406 0.15461785 0.15950292 -0.22767884 -0.013112684
-0.15471195 -0.0813086 -0.17657441 0.106093444 0.21565637 -0.06587544 0.04052199 -0.28325886
-0.049995225 0.15241787 -0.26158547 0.24138236 0.054445926 0.16554335 0.05819009 -0.26005134
-0.02760351 0.25231823 0.24933952 -0.22147077 0.02413686 0.12210348 -0.10581979 -0.20691884
00000000: f410 5f3e 80fb ac3c bddb 8cbe a12f 8abe
00000010: d811 4fbd 88a2 9c3e 7a1a 52be e3f3 843e
00000020: 30d7 e1bc 372d 8fbe e453 54be 8ab8 16be
00000030: be3b f1bd 82ab 8bbe b1a8 52be 8a72 563e
00000040: ceb6 073d 6b0a 55bd 4aea 833e ea31 febd
00000050: 22fd 2f3e c525 32be f6c3 ffbd 2048 5c3e
00000060: 5cf0 c43d 936f 16be e362 603e 38bd 8b3e
00000070: a6d9 98be f9b6 92be 4681 983e 1dac 273e
00000080: 7217 66bd 6e09 2c3e 8202 fabd 794a 95be
00000090: 8088 fb3b c23e 5dbe 682c 94be a85b edbd
000000a0: 743b 863d c4cf 9e3d e3b0 06be 002b b3bb
000000b0: 8ca0 6c3c 74d8 943d 1502 01be 40cc e63d
000000c0: 2e37 59be e1c3 b83d 8d2b 893e cd8f dcbd
000000d0: c8f5 ed3d 36ba 4c3e 2c0e 453d 7020 2c3e
000000e0: b4b3 9bbd f574 47be 40db 19bc 5c70 88be
000000f0: 03f7 7cbe afdc 4bbd a1b6 58bd ac40 4b3e
00000100: 7b32 163e a1cf 9b3d f023 53be 78bc 213e
00000110: a4bf ecbd 5066 97be 908a c7bd 982c 60be
00000120: 3b20 543e f51b 073e 1612 903e f2af dbbd
00000130: 66a8 47be 3295 3fbe cd4a 1cbe 3568 d93d
00000140: d2ae 923d 0784 cc3d 1c3f 2abe e2df c03d
00000150: b01f f63d f25d 55be 4df9 8ebe fad2 233d
00000160: 90ab 86bd d069 1a3e a041 41bd 1006 8e3e
00000170: 36e6 c1bd afe5 f13c 5f4f 89be 3b0f 8cbe
00000180: e0b6 aabc 0be6 dabc 9a1d 373e e27f 11bd
00000190: 0745 96be 8426 2d3e 1c8f e7bd 3fd2 ea3c
000001a0: f31e 053e 1654 9a3e 4ca1 933e 604f 2cbc
000001b0: 40c3 eb3d 477a 7abe 807d cb3c 90c4 663d
000001c0: 9085 f13c 5064 3a3d c2b8 80be ce0b 213e
000001d0: 5d38 3ebe f0ab 6abe d8ca bfbd c8f7 b43d
000001e0: f865 c33d 5a7a 173d 98cc e3bd 209d c3bc
000001f0: c0db 7fbc 3272 7fbe 5ceb fe3d 2528 743e
00000200: 378b a33d b8c2 6a3e 6ef9 94be 5eba 043e
00000210: 806c f73d c478 6bbe 0c2a 6a3e f097 c23c
00000220: 77b0 41be 6a38 2ebe b209 36be 2a66 94bd
00000230: 369e 813e 5497 8bbe 00e3 a33d 0d5a 1dbe
00000240: 683b 82bd e160 4a3e 0563 2ebe 1947 9dbc
00000250: 4a61 23bc ea1f d2bc 3d9e 633e 8609 913e
00000260: dc4e 4b3e 688c b9bd 5b3a 0d3e 9492 613e
00000270: 5f2c 533d d1fa 013e 86ea 8b3e 6c05 90be
00000280: b35a ae3d 5c6f 7abe f0f2 743e 2728 3a3e
00000290: ebdf ba3d a79d 4b3e 5296 35be 5a8f ccbd
000002a0: 9fe5 25bd 71f1 13be 8a73 853e e438 ed3b
000002b0: 1608 2f3e 269e 953e c3e2 86bd 0612 173d
000002c0: c032 3b3d 3d88 57be c8fe aa3d cbb3 82be
000002d0: b44b 903e 408c 8abe 207b 83be 2214 573e
000002e0: a859 c53d 398c 9cbe 2c91 8a3e f0ed ddbc
000002f0: 52c6 78be 9c59 37be ee1a 3b3d 648d 3d3d
00000300: 85da 91be 99fe 2d3e 1788 bdbd 60e3 113e
00000310: a8ec 00be f44f 943e 6a48 9a3e e093 24bc
00000320: 6a60 aebd 0c01 5cbe 1e7c 89bd a688 0ebe
00000330: c8be f6bd 18fd 86be 50ca aabc 80e5 1cbd
00000340: e0d8 02bc c24f 043e b264 82be 8351 98bd
00000350: 06a0 463e b536 863e 2495 9abd 6a3a 40be
00000360: ba4b 563e e2bf 2e3e 2f86 f73d 2246 e1bd
00000370: a950 23be 1262 fabd 7d4d 0ebe 6973 93be
00000380: 25e8 fd3d a6fa 31be aaea 0abe 377d 963e
00000390: 2454 1e3e bc54 233e a424 69be 95d6 56bc
000003a0: cf6c 1ebe 2085 a6bd eccf 34be 8547 d93d
000003b0: 06d5 5c3e b4e9 86bd 63fa 253d 4e07 91be
000003c0: cbc7 4cbd 6e13 1c3e 88ee 85be f02c 773e
000003d0: b102 5f3d 3284 293e bb58 6e3d 7325 85be
000003e0: c220 e2bc db2f 813e dc52 7f3e 3cc9 62be
000003f0: aaba c53c 6411 fa3d 0cb8 d8bd 88e2 53be

linear1.bias f4 [256]
-0.14058621 -0.18354312 0.15385257 -0.10263118 0.08443483 0.0996931 -0.05210368 0.22302729
0.036763087 -0.20085861 -0.04836768 0.06513331 -0.29731807 -0.09846576 0.2837094 0.08993679
0.108434565 -0.022954436 -0.0054897964 -0.30703706 -0.10818852 0.23913568 -0.12690456 -0.06250486
-0.07439886 0.27831054 -0.0071751047 0.18692137 0.018224584 0.09145128 0.119421646 0.020421315
-0.13449042 0.21951687 -0.2765459 0.08243715 0.19078332 0.24810497 -0.20877233 -0.1771148
-0.099534735 -0.07755108 -0.09041366 -0.020368539 0.25120655 -0.07626203 0.21883333 -0.22037408
-0.09398451 0.05659949 -0.19765024 0.16839872 0.16880023 0.17475334 -0.15215945 0.052329525
0.078334525 0.17911892 0.0753066 -0.17412156 -0.25412232 -0.14940941 0.11413154 0.20223606
-0.2209386 -0.010624195 0.16779569 0.004304203 -0.28690842 0.24161468 -0.19817461 -0.016545411
-0.29720175 -0.29125002 -0.1081881 -0.09134042 0.20038591 0.1974492 -0.30549213 0.21676807
0.04463227 -0.08183505 -0.13905154 -0.225283 -0.24469616 -0.082208 0.2913097 0.122220166
0.06913324 0.0024260078 -0.022290794 0.061065484 0.0989183 0.26662698 0.13032335 0.0926667
0.103019536 0.13588814 -0.10404922 -0.033708528 -0.24401207 -0.03896762 0.26590654 0.1738092
0.26484466 0.14691488 -0.04185475 0.27008373 0.054874312 0.22492434 -0.2232169 0.17845555
-0.20830569 -0.10826108 0.0019339508 0.27772802 -0.04575485 -0.111190625 -0.0638497 0.15236448
0.08480735 -0.10105926 -0.29025102 -0.22609846 -0.1788302 0.12832808 0.21923919 -0.0661201
-0.048669036 -0.23629552 0.0037061977 0.23270248 -0.029120864 -0.08646383 -0.10728325 0.107900344
-0.11299978 -0.30011505 -0.033558678 -0.07947469 0.25072837 0.21265645 -0.1344218 0.046431195
0.24106379 -0.15342286 0.060350846 -0.20759235 0.097859785 -0.28535438 0.22787552 0.07726161
-0.24587166 -0.16359928 -0.1772401 -0.1335303 0.27025658 -0.019386917 0.04358907 0.16329998
0.27963528 0.033729818 -0.043622978 -0.30210572 -0.1943036 0.21032828 0.2507396 0.24788311
-0.1771516 0.2443445 -0.051561773 -0.26130682 0.22181647 -0.21542792 0.25666228 0.05636031
0.099109545 -0.31375444 0.056305155 -0.115644395 -0.17429201 0.26875266 -0.13673064 0.17880706
-0.1440219 -0.15878928 -0.28207937 -0.2799359 0.26471856 -0.28135604 0.091555424 0.2631687
-0.03217596 0.14823991 0.27826598 0.06479846 -0.298849 0.059699304 -0.2274808 0.06089597
0.24199499 0.07889581 0.04573719 0.08184262 0.023362787 0.032561757 0.15111692 -0.06439788
-0.20296404 0.29569548 -0.26327506 0.088561885 -0.09044657 0.0987815 -0.08880321 -0.2706597
0.19596042 0.11345712 0.27306837 0.06942219 -0.13599023 -0.20765153 0.0754398 0.12435277
-0.1751468 0.2804962 -0.1941837 0.22762302 0.11490243 -0.11616097 0.08826977 -0.26945284
-0.005387487 -0.04992084 -0.21572001 0.16382015 0.12769222 -0.28158844 0.09904922 -0.13987923
-0.21734923 0.113332264 0.009431826 -0.0050139967 -0.27911365 -0.12276379 0.28497258 0.07481445
-0.28404954 -0.17797527 -0.26086476 -0.027638722 0.012695135 0.14506578 0.105389446 0.22513665
00000000: d5f5 0fbe baf2 3bbe 878b 1d3e 4c30 d2bd
00000010: 2bec ac3d e52b cc3d ab6a 55bd 4461 643e
00000020: e494 163d e1ad 4dbe 301d 46bd 9d64 853d
00000030: 133a 98be 6ba8 c9bd 5c42 913e c830 b83d
00000040: f112 de3d f10a bcbc c0e3 b3bb f633 9dbe
00000050: f191 ddbd fcdf 743e 45f3 01be 8c02 80bd
00000060: 6e5e 98bd b87e 8e3e 241d ebbb 5168 3f3e
00000070: b94b 953c cf4a bb3d 5693 f43d 9a4a a73c
00000080: dbb7 09be 08c9 603e 6d97 8dbe cfd4 a83d
00000090: b45c 433e 3b0f 7e3e 6ac8 55be 955d 35be
000000a0: ded8 cbbd 1ad3 9ebd cc2a b9bd ecdb a6bc
000000b0: 259e 803e 442f 9cbd d815 603e bea9 61be
000000c0: f37a c0bd ded4 673d d364 4abe b770 2c3e
000000d0: f8d9 2c3e 8af2 323e b0cf 1bbe 7c57 563d
000000e0: da6d a03d f36a 373e 593a 9a3d ec4c 32be
000000f0: 521c 82be c8fe 18be ccbd e93d f816 4f3e
00000100: ba3d 62be 1b11 2ebc a2d2 2b3e 460a 8d3b
00000110: a9e5 92be d769 773e 49ee 4abe 3e8a 87bc
00000120: d42a 98be b91e 95be b991 ddbd b010 bbbd
00000130: f731 4d3e 2030 4a3e 7769 9cbe 73f8 5d3e
00000140: 54d0 363d 2299 a7bd 8763 0ebe 96b0 66be
00000150: a191 7abe ab5c a8bd 8c26 953e 914e fa3d
00000160: ba95 8d3d a8fd 1e3b 2f9b b6bc cd1f 7a3d
00000170: ad95 ca3d 5583 883e 7c73 053e 0ac8 bd3d
00000180: e8fb d23d 4326 0b3e c217 d5bd f411 0abd
00000190: 4dde 79be 839c 1fbd e724 883e 0afb 313e
000001a0: b899 873e db70 163e e36f 2bbd 6a48 8a3e
000001b0: e3c3 603d 9152 663e f992 64be 0dbd 363e
000001c0: 164e 55be fcb7 ddbd 9f7c fd3a 5e32 8e3e
000001d0: 7069 3bbd e9b7 e3bd a2c3 82bd 6f05 1c3e
000001e0: 7aaf ad3d 28f8 cebd c89b 94be 5b86 67be
000001f0: 441f 37be 7068 033e 3d80 603e fa69 87bd
00000200: 2f59 47bd 74f7 71be aee3 723b 8f49 6e3e
00000210: e18e eebc f313 b1bd 52b7 dbbd dbfa dc3d
00000220: 6e6c e7bd aea8 99be d374 09bd a0c3 a2bd
00000230: 785f 803e 9dc2 593e dea5 09be a32e 3e3d
00000240: 6dd9 763e e21a 1dbe 7332 773d 1793 54be
00000250: b66a c83d f819 92be 3358 693e 563b 9e3d
00000260: c8c5 7bbe 9286 27be 6e7e 35be 2bbc 08be
00000270: 125f 8a3e 50d1 9ebc 748a 323d 1c38 273e
00000280: 5b2c 8f3e 4728 0a3d 02ae 32bd 9aad 9abe
00000290: 86f7 46be 4c60 573e f160 803e 12d5 7d3e
000002a0: 3b67 35be 7235 7a3e 7032 53bd 02ca 85be
000002b0: db23 633e 2399 5cbe 3d69 833e 12da 663d
000002c0: f2f9 ca3d 6ca4 a0be 3ca0 663d f8d6 ecbd
000002d0: 9b79 32be f399 893e 1e03 0cbe 3319 373e
000002e0: 7a7a 13be a899 22be b56c 90be c253 8fbe
000002f0: 3189 873e e60d 90be 6981 bb3d 0cbe 863e
00000300: f0ca 03bd 34cc 173e e178 8e3e 0eb5 843d
00000310: bc02 99be 4287 743d baf0 68be 0d6e 793d
00000320: 89cd 773e 2094 a13d eb56 3b3d 1b9d a73d
00000330: 5163 bf3c 7a5f 053d 65be 1a3e 09e3 83bd
00000340: ced5 4fbe 6665 973e fdcb 86be ef5f b53d
00000350: 0d3c b9bd f44d ca3d 75de b5bd e893 8abe
00000360: d9a9 483e 355c e83d 9ecf 8b3e 392d 8e3d
00000370: 0641 0bbe 9aa2 54be 2f80 9a3d aaac fe3d
00000380: af59 33be 339d 8f3e 18d8 46be 0216 693e
00000390: f751 eb3d cde5 edbd c8c6 b43d b9f5 89be
000003a0: 8489 b0bb cb79 4cbd b5e5 5cbe 78c0 273e
000003b0: c0c1 023e 5c2c 90be 51da ca3d 803c 0fbe
000003c0: cc90 5ebe bf1a e83d f287 1a3c 744c a4bb
000003d0: fce7 8ebe 956b fbbd ede7 913e 5238 993d
000003e0: f16e 91be 263f 36be 1190 85be 9a6a e2bc
000003f0: 41ff 4f3c 208c 143e 6cd6 d73d 398a 663e

linear2.weight f4 [3, 256]
0.062368557 0.027789958 0.0010379422 -0.016766958 -0.05036854 -0.022003671 0.055059046 0.042466875
0.03983093 0.004435535 0.018373683 0.031351253 -0.042499103 -0.045224704 0.016721165 0.036767505
-0.020358335 0.017917758 0.005089171 0.02795584 0.06147413 -0.004365047 -0.04759376 -0.041743524
-0.030436903 0.020753575 -0.039043803 -0.06150913 0.016118363 -0.047893643 -0.050526578 -0.035432022
-0.071617156 0.03671523 -0.011881422 0.07306826 0.0030770586 0.022081383 0.05782234 0.011777721
0.023353023 0.015299926 -0.015563776 -0.012308692 0.019653719 -0.04355951 -0.034524776 -0.050653428
-0.01643436 0.0032871214 0.045546334 0.058144324 0.027128574 -0.02576498 -0.051198557 -0.038016967
-0.054181874 0.038783528 0.037991304 -0.009833684 0.023514183 0.0031449401 -0.05650528 -0.020382036
-0.05691441 -0.036066055 0.020698221 0.0073803533 0.063939616 -0.020905932 -0.038735915 0.011949165
0.06428199 0.06121728 -0.009927682 0.042576596 0.0366223 -0.0420053 -0.020097494 -0.054796543
0.048374254 -0.008444852 0.017650014 0.0412061 -0.0038927798 -0.037854612 0.004507275 0.03176468
-0.028182633 -0.049512994 -0.048975002 -0.05516488 -0.048437595 0.04983343 0.027984742 0.021604335
0.048959676 0.024022298 0.04553385 -0.004233005 0.015457898 -0.031304073 0.01173156 -0.03621893
0.025866214 -0.023862634 -0.003855966 0.0008167699 0.039907694 -0.0021494415 -0.044592775 -0.017369932
-0.01371035 -0.0016274899 0.07107495 -0.03044573 -0.01332303 0.0074058524 -0.00616241 0.00016119791
-0.02146866 0.04644379 0.04459463 -0.055798844 0.023866313 0.0087441765 -0.021659978 -0.006739495
-0.012064473 0.02832461 -0.052518252 -0.00042304717 0.020021856 0.0033790304 0.053939678 0.008283153
-0.019626725 -0.0014235824 -0.03996133 0.016435131 -0.01405126 -0.017309759 -0.032285877 -0.0098208925
0.03287131 0.043774214 -0.035385013 -0.010983735 0.040641043 0.061656453 0.0008123327 -0.03767005
-0.028082117 0.049076684 0.05057622 0.04637686 0.043582678 -0.04704812 -0.016101614 -0.0075195427
0.0310219 0.033839125 0.011050778 0.009461288 -0.04844907 0.03469659 -0.03737875 0.02613831
-0.022287095 0.032338023 0.030004157 0.020563666 -0.044457834 -0.011853375 0.02463465 -0.030394856
0.051065706 -0.0403014 0.0041766427 0.0029885322 0.028801188 0.04137747 -0.00996927 -0.0007723676
-0.051828966 0.02273617 0.042682376 -0.029954664 0.06353431 0.061362468 0.045381144 -0.012144171
0.005816981 0.047288656 0.015355118 -0.008595412 -0.004765786 -0.058051474 0.0052774395 0.021651218
0.039603475 0.006264427 0.0022380054 -0.0064849136 -0.048484247 0.058798872 -0.01466169 -0.02155087
-0.05282434 0.033651408 0.0041566417 0.060059164 -0.011670938 -0.043470122 -0.042340647 -0.007075467
0.030343598 0.027215647 -0.043777484 -0.046648923 0.016873308 -0.022275932 -0.01778244 -0.058335897
-0.037287254 0.0372628 -0.022124827 -0.028882429 0.043143354 0.012008544 -0.044577323 -0.019895254
-0.005368639 0.052998114 0.027559062 0.0021685169 -0.002647811 -0.0025517717 -0.022334013 0.032822877
-0.016322538 0.05179783 0.034950413 0.034753926 -0.056710683 -0.04736103 -0.051594652 -0.028569438
0.006999545 0.05937488 0.016920825 0.059609935 -0.03334532 0.040333137 -0.058077887 -0.016695274
00000000: 2c76 7f3d c4a7 e33c 900b 883a dc5a 89bc
00000010: 3e4f 4ebd 0b41 b4bc 9885 613d bff1 2d3d
00000020: c225 233d f757 913b 6884 963c 2c6a 003d
00000030: 8a13 2ebd 8a3d 39bd d3fa 883c 8699 163d
00000040: 86c6 a6bc 43c8 923c 10c3 a63b a503 e53c
00000050: 4ccc 7b3d ab08 8fbb adf1 42bd 42fb 2abd
00000060: d056 f9bc 6703 aa3c 65ec 1fbd fff0 7bbd
00000070: a80a 843c 202c 44bd f5f4 4ebd 2b21 11bd
00000080: 04ac 92bd b662 163d 4caa 42bc d0a4 953d
00000090: 7aa8 493b 04e4 b43c 1ed7 6c3d 58f7 403c
000000a0: d74e bf3c 8aac 7a3c 35ff 7ebc 65aa 49bc
000000b0: d600 a13c 756b 32bd da69 0dbd f879 4fbd
000000c0: 5aa1 86bc bf6c 573b cb8e 3a3d be28 6e3d
000000d0: be3c de3c 1411 d3bc 94b5 51bd aeb7 1bbd
000000e0: d0ed 5dbd 7adb 1e3d c59c 1b3d 761d 21bc
000000f0: d1a0 c03c 571b 4e3b 1572 67bd 3af8 a6bc
00000100: 161f 69bd 00ba 13bd 518f a93c e4d6 f13b
00000110: c6f2 823d eb42 abbc 8da9 1ebd 6ec6 433c
00000120: 47a6 833d f8be 7a3d b7a7 22bc cc64 2e3d
00000130: 4401 163d c00d 2cbd 80a3 a4bc 5772 60bd
00000140: 1524 463d 475c 0abc c396 903c bac7 283d
00000150: 021e 7fbb 700d 1bbd c3b1 933b ae1b 023d
00000160: 44df e6bc 23ce 4abd 039a 48bd 92f4 61bd
00000170: 8066 46bd 241e 4c3d 4240 e53c 93fb b03c
00000180: f189 483d 69ca c43c b481 3a3d 05b5 8abb
00000190: 2043 7d3c b338 00bd bb35 403c 4d5a 14bd
000001a0: 62e5 d33c 927b c3bc 60b4 7cbb 801c 563a
000001b0: 4076 233d a5dd 0cbb eaa6 36bd 634b 8ebc
000001c0: 60a1 60bc 8051 d5ba be8f 913d 5369 f9bc
000001d0: d748 5abc cbac f23b 0bee c9bb 3c07 2939
000001e0: 0bdf afbc d83b 3e3d dca8 363d 548d 64bd
000001f0: 4983 c33c bc43 0f3c 4470 b1bc fbd6 dcbb
00000200: 11aa 45bc 0309 e83c 611d 57bd 6ecc ddb9
00000210: e004 a43c b972 5d3b daef 5c3d 10b6 073c
00000220: 3ac8 a0bc 8097 baba 7eae 23bd f8a2 863c
00000230: 4237 66bc 32cd 8dbc 323e 04bd cfe7 20bc
00000240: 11a4 063d 974c 333d e0ef 10bd 20f5 33bc
00000250: 3977 263d 7a8b 7c3d baf2 543a e94b 1abd
00000260: 780c e6bc a204 493d 0329 4f3d aaf5 3d3d
00000270: c083 323d 88b5 40bd 88e7 83bc 7f66 f6bb
00000280: a421 fe3c e59a 0a3d 530e 353c 8503 1b3c
00000290: 8872 46bd 031e 0e3d 761a 19bd 0220 d63c
000002a0: 6d93 b6bc e074 043d 47cb f53c 2275 a83c
000002b0: 6b19 36bd a834 42bc 9bce c93c a2fe f8bc
000002c0: 462a 513d 1513 25bd 38dc 883b 40db 433b
000002d0: 78f0 eb3c 6c7b 293d 2656 23bc b678 4aba
000002e0: 9c4a 54bd 3441 ba3c b7d3 2e3d 7c63 f5bc
000002f0: 471e 823d 3657 7b3d 94e1 393d 58f8 46bc
00000300: 609c be3b c0b1 413d 0894 7b3c c5d3 0cbc
00000310: 502a 9cbb 62c7 6dbd 5fee ac3b e55d b13c
00000320: 4137 223d d345 cd3b 80ab 123b 667f d4bb
00000330: 6b97 46bd 16d7 703d 9637 70bc 738b b0bc
00000340: 565e 58bd 0fd6 093d 7034 883b 9900 763d
00000350: 7637 3fbc ba0d 32bd 636d 2dbd 52d9 e7bb
00000360: 2393 f83c 59f3 de3c 0550 33bd f112 3fbd
00000370: e439 8a3c 047c b6bc 7bac 91bc 9ff1 6ebd
00000380: 85ba 18bd e1a0 183d 203f b5bc d89a ecbc
00000390: 16b7 303d 7cbf 443c b696 36bd 5ffb a2bc
000003a0: 68eb afbb 8d14 593d 8bc3 e13c ad1d 0e3b
000003b0: e686 2dbb a03b 27bb d2f5 b6bc 4871 063d
000003c0: d8b6 85bc f629 543d 2a28 0f3d 225a 0e3d
000003d0: 7649 68bd a4fd 41bd ea54 53bd 740a eabc
000003e0: 705c e53b 1333 733d 8b9d 8a3c 8c29 743d
000003f0: 1a95 08bd 5c34 253d 14e3 6dbd 87c4 88bc

linear2.bias f4 [3]
0.013186845 -0.05406688 -0.05668409
00000000: a30d 583c 3c75 5dbd 942d 68bd
