model/model.pth (torch, 16787 bytes, 4 tensors)

linear1.weight f4 [256, 11]
00000000: d640 633e e0de 15be 7b04 793d 66b1 7fbe
00000010: 9863 4d3e d056 1abd 65b2 713c 4158 09be
00000020: 37a3 9b3b a75d 773d 1ada 843d 54d2 7e3e
00000030: 108f b6bc 5047 193d 90b9 b13c b748 1bbe
00000040: 3cdb bfbd 5264 94be c8d3 16bd 1c16 7abe
00000050: 3096 1b3d b803 24bd c52a 183e 903a e43d
00000060: cbcb 51be 1144 9abe 2c36 e1bd 1eff dbbd
00000070: 2d4e 98bd 4904 913d d892 203d d072 7dbe
00000080: 0158 3abe 6652 02be 90b3 bebc 341e 763e
00000090: 4833 563d e8be 2cbd 7707 99be 7061 98bc
000000a0: 0035 39bc 8f5b 1abe 50b0 80be cb0b 88be
000000b0: 95c0 b43d 694c b8bd 9c94 adbd b58a 84be
000000c0: 3926 9cbc 2bc6 e4bd 64a2 59be 36ee 103e
000000d0: faa1 ce3d 95e8 0ebe d3ba 76be b85a 223e
000000e0: 860f 923c f211 2d3e 07a1 1ebe b9d9 b23d
000000f0: 94a5 8a3b 08f2 5dbe 44c9 18be 7c2b 3b3d
00000100: 6436 03bc 3822 3bbe 34be 91bd bd3f 9abe
00000110: 225e 023e 3c9e 86bd 079e 76be 4016 d23d
00000120: bc59 7a3e 4399 35be d0df 13be b242 47bd
00000130: 1aa8 4dbe e8c7 fdbd 2b10 9cbd bca7 98be
00000140: 9432 73be f992 ae3d 89f0 513b 6694 85be
00000150: 3ceb 263e e025 893e 1174 573e ac04 8fbe
00000160: 0287 1e3e 15da 233e 58fa 26be 2cc6 903d
00000170: b6ed 913e 752d acbd 82af da3c 4c7f 1fbe
00000180: 9ec2 68be 711c 923e 0feb e73d c12f bbbd
00000190: cb89 2dbe 44a4 8abe b290 553e 43ee 0d3d
000001a0: 3966 823e 16d0 583e 2de5 263d 7441 c63d
000001b0: 7db2 4a3e bafd dcbd ac44 85be 3617 d5bc
000001c0: 7ab9 98be 0e0a 7a3e dbd8 243e d580 02be
000001d0: 46ef 4fbe 63a9 71be 7751 843d 0cb2 c93d
000001e0: 10e2 30bd 8745 a83d 6756 513e d406 31bc
000001f0: 9069 753e 3ec2 3cbe b32f 5f3d 0b56 263d
00000200: 3041 d0bd 71de 99be ff7b 6a3e 67ea c3bb
00000210: 4086 fb3b a46d 343e 6e74 43be 4885 7b3d
00000220: 2c1c 6b3d 18dd f3bd 3ec0 10be 464d 8b3d
00000230: e07c 6fbc f410 84be 1e40 f4bd c8b8 f83d
00000240: 96db 2cbe a723 8d3d 24c1 0bbe e7c6 4b3e
00000250: 8875 2abe 3b27 e63c bd54 523e 2c8b 963e
00000260: 4612 19be affe 953d a8b3 e1bd 9cff e03d
00000270: 9fa1 92bb e589 613e be77 0cbe 259c 0d3e
00000280: 98ac 2d3d 85a1 34be 2225 5fbe e027 223d
00000290: 01a1 3ebc 5933 603e 1e40 8abe 0ea6 583e
000002a0: 03bf 103e 6512 b9bb 464c 99be 12fd 91be
000002b0: 9436 e13d 6193 6abe 344a 80bd 3ce6 4e3e
000002c0: 50ef 433d f942 c23d a34e 2bbd 3d4c 993e
000002d0: c39a 593c e468 dc3d 3fb6 bf3c 2ea2 6b3d
000002e0: d8eb 24bd 1d06 4bbd a8a2 03be deaf 8cbe
000002f0: c545 d3bd 5d89 7f3c 19b0 16be 065a ccbd
00000300: e41b 18be c3b7 da3d 8352 093e e078 49be
00000310: eb34 b33d 4ff0 74bc cef8 c93c 6f90 21be
00000320: b804 79be 8c4a ec3d fe1f 973e fe70 7a3e
00000330: 77b5 a13d 3606 703e 7602 d8bd 60d9 cb3d
00000340: 17ab 943e c786 dc3d 042a 9a3e 3002 8cbe
00000350: d020 f3bd 0b85 ffbd 96c9 dd3d 3b16 9d3d
00000360: da5f 913e 0e3c 983e 9032 4fbe 13a6 fdbd
00000370: 872c 6e3e e6e1 c83d 1d03 bb3d e60a 0a3d
00000380: be32 a23d 02bf 7f3e 9d33 51be 5df4 733c
00000390: 8d1e 463e c1d4 95be 7659 19bc 9aeb 10be
000003a0: a7c7 593e 3550 e9bd 0410 35bd a7f4 603e
000003b0: a916 fb3d 4020 313e 2312 76be 898c a1bc
000003c0: 8168 023d 5f3e 753e e169 09be 3dd4 dd3d
000003d0: d849 84be 53b3 503e c6fe 42be 6aa2 033e
000003e0: 07a9 b1bd b5c6 4bbd 74b4 eabd 7e6e 143d
000003f0: aa80 023e d99e 223e 8aa1 dcbc 9cbd f53d
0.22192702 -0.14635801 0.06079529 -0.24970016 0.20057523 -0.037680447 0.014752005 -0.13412572
0.0047496813 0.06039205 0.06486912 0.24884921 -0.022285014 0.037421525 0.021694928 -0.15164457
-0.093679875 -0.28982788 -0.036823064 -0.24422497 0.037985027 -0.04004261 0.14860065 0.111439824
-0.20487897 -0.30130056 -0.109966606 -0.10742019 -0.07436786 0.070808955 0.03920254 -0.24750829
-0.18197633 -0.12726745 -0.023278981 0.24034959 0.052295 -0.04217425 -0.29888508 -0.01860115
-0.01130414 -0.1507399 -0.25134516 -0.26571497 0.088257946 -0.08998949 -0.084756106 -0.25887075
-0.019061195 -0.1117061 -0.21253353 0.1415337 0.10089488 -0.1395591 -0.24094705 0.15854919
0.017829668 0.16901377 -0.15491115 0.087329336 0.004231164 -0.21674359 -0.14920527 0.045695767
-0.008008573 -0.18274772 -0.071163565 -0.30126753 0.12731221 -0.065731496 -0.2408372 0.1025815
0.24448293 -0.17734246 -0.14440846 -0.04864759 -0.20083657 -0.12391645 -0.07620271 -0.2981547
-0.23749763 0.085241266 0.003203424 -0.26089782 0.16300672 0.2678671 0.2104037 -0.27933252
0.15481189 0.1600116 -0.16306436 0.07069048 0.28501672 -0.08407108 0.026695017 -0.15575904
-0.2273049 0.28537324 0.11324131 -0.09139968 -0.16947095 -0.2707845 0.20855978 0.034651052
0.25468615 0.21173128 0.040745903 0.09680453 0.1979465 -0.10790582 -0.26028955 -0.026012044
-0.29829007 0.24417898 0.16098349 -0.12744458 -0.2030612 -0.23599772 0.06460851 0.09848413
-0.04318434 0.08216386 0.20443116 -0.010804851 0.2396605 -0.18433473 0.05448885 0.0406094
-0.101686835 -0.30052522 0.22898863 -0.0059788707 0.007675916 0.1761995 -0.19087383 0.061406404
0.057399914 -0.11907405 -0.14135835 0.06801848 -0.014617175 -0.25794184 -0.11926292 0.12144619
-0.1688064 0.06891566 -0.13647896 0.19900094 -0.16646397 0.028094878 0.20540138 0.29403055
-0.14948377 0.07323968 -0.11020595 0.109862536 -0.004474833 0.22025259 -0.13717553 0.13829096
0.042400926 -0.1763974 -0.21791509 0.03958881 -0.011635066 0.21894588 -0.27002043 0.21157095
0.14135365 -0.0056479448 -0.29941005 -0.2851339 0.10996738 -0.22907783 -0.06264153 0.20205015
0.047835648 0.0948543 -0.04182304 0.29940978 0.013281527 0.10762194 0.023402331 0.057527713
-0.04026398 -0.049566377 -0.12855017 -0.27477926 -0.10316042 0.015596715 -0.14715613 -0.09978108
-0.1485439 0.10679581 0.13410382 -0.19675016 0.08750328 -0.014949872 0.024654772 -0.15777753
-0.24318206 0.11537656 0.29516596 0.24457166 0.0789594 0.2343987 -0.105473444 0.0995357
0.2903678 0.10767894 0.3011018 -0.2734542 -0.11871493 -0.12476548 0.10829465 0.07670256
0.2839344 0.29733318 -0.20234132 -0.12385192 0.23259173 0.09808712 0.09131453 0.0337018
0.079198346 0.24975207 -0.20429845 0.014889804 0.19347592 -0.2926388 -0.009359708 -0.14152375
0.21267568 -0.113922514 -0.044204727 0.21968327 0.122601815 0.17297459 -0.24030356 -0.019720333
0.031837944 0.23949574 -0.13419296 0.10831497 -0.25837588 0.20380907 -0.19042501 0.12854925
-0.086748175 -0.04975005 -0.114602 0.036238186 0.12744394 0.15880908 -0.026932497 0.11999056

linear1.bias f4 [256]
00000000: a7b3 04be 4b1a 2dbe 4368 d4bd ca44 08be
00000010: 029f f83d 1a60 75bd a832 2cbe 7c6e 82be
00000020: cd7f 8b3d 4b51 87be 9375 79bd fc29 43be
00000030: 331c 79be 0aa8 2e3e ee87 e0bd c947 d2bd
00000040: 7e50 a2bd 4573 783e 3f1d c23b 0e38 333e
00000050: 33a0 26be ae81 873e 4f38 103d bf02 3c3e
00000060: 60a3 1cbe ae46 ffbc b606 493e 8fb4 7dbe
00000070: 993e 5a3d 0b4d 8abe 064a f9bd 37ac ed3c
00000080: c48e 9a3e c5fd a0bd be15 4b3e 7c26 f33d
00000090: 8bd7 213e c448 933e 3902 873e 4e10 823e
000000a0: 075b 3f3d db41 d23c 3a90 31be 5f8c 9a3d
000000b0: 52ec 67be ebb5 683e 6114 23bc 0303 5fbe
000000c0: bb8a 693e d05d 21be afee 23be cc1b f53c
000000d0: 5b97 0fbd da5d e1bd 8b5d bc3d 39be b5bd
000000e0: a595 12bd f624 72bd 03e0 8c3e 83c5 32bd
000000f0: bc8a 16bd 1ab2 923d 0ef6 8c3e e8c6 8e3d
00000100: 6778 aabd 0182 7fbd 6f10 633c f62a 403e
00000110: 30ed 63be abff 1c3c 7d35 84be 1862 193e
00000120: 4856 8c3e 5ea7 90be 0a8a 893e d75f 823e
00000130: b9c0 933e afff 8cbc e0c1 a93d 1770 61be
00000140: 6074 c03c f68b 98bb 3bba 3c3e 93c5 18be
00000150: e609 5cbe ed46 743e d348 483e 8a14 063e
00000160: fb59 58be 4bbb f8bd 3d71 e03d 7b71 5cbd
00000170: b000 00be fbbc 30bd cb0d 14bd de72 2bbe
00000180: be6b 88bc 0ff0 9aba d4af 2c3e 1616 99be
00000190: 1015 dcbd 51a4 a2bc 1fba 0fbd f98f d93d
000001a0: 1942 943e 1643 2cbe d3ae 663e 9e15 bc3d
000001b0: a003 27be c7aa 723e 61ae 85be 8808 e03d
000001c0: 5ef1 993d 2fda d23c 6e64 5ebe 6d04 6f3e
000001d0: 8846 c2bc 18a3 2cbe 7c0a ef3d 186d 80be
000001e0: a85f 4dbe 9ab9 8d3a c2e3 033e b824 96be
000001f0: 9be6 9ebd 391b 76be ace9 313e a404 20be
00000200: 9685 fc3d 4ec8 8a3b 4cc4 353e f386 833d
00000210: 4b8f 903e 038f 22be 19a8 02be ce47 6d3e
00000220: 9187 dabb 2b47 77be 170d 263e e47b 1ebe
00000230: 3a99 80be 0bb3 183d 87fc b7bd a525 94be
00000240: e1ea 203e d245 66bd c7d7 79bd c7cd 82be
00000250: aa37 893d 184a b4bd 892a 3abe 4f7b 86be
00000260: 72e2 d93d c4de 4b3e 7938 9b3e e40b 7d3e
00000270: 7641 023e 3a3e 5d3e 34ed 1abe cbac 863e
00000280: b441 74be abc6 f13d ff93 6fbe 1ff8 ae3d
00000290: 76d9 26be c6dc 11be e4d6 2abe 1c3e 1dbe
000002a0: 41f3 5d3e d62a 473e b2bd 81bd 076c 3f3e
000002b0: 0622 37be e8fa 8d3e 4a62 28bd e391 2abd
000002c0: 829d 50be 96a7 893e c1a2 38be 8164 c83d
000002d0: 63c6 923d 98fc 373e d6b5 2e3e b0e6 703d
000002e0: 32c8 bdbd 00d0 df3c ddb0 bcbc 1f30 07be
000002f0: 1e9a 8bbe 1081 6b3e ae66 5ebe 5a98 eb3d
00000300: 8774 283e cb18 903e 9b56 00bb 2f99 903e
00000310: 625f 1a3e 7828 82be d4bf 39be 7c0f 9bbd
00000320: 79fa 12bd 8fba 363e 46dc 08be 22b5 7a3e
00000330: 6e7f 5a3d 650f f83d a013 853d 98a5 0e3e
00000340: 1a37 9bbe 62e8 493e 26a8 473c da4a 2c3e
00000350: 2876 fdbd a83c 47be 1c7d 88be 01f1 373e
00000360: 8add 4dbe 52ee f6bd faa9 2a3e ae9e 34be
00000370: 6cdc 983e 8ff0 4ebd ded7 af3c 5de5 37bd
00000380: c9d4 8b3e 9965 e7bd 9cb6 3f3e 3e9f 613e
00000390: 05e9 db3d 9ca1 c53c 3863 07be 6d14 6c3e
000003a0: dbef 55bd 554b d33d d141 133e c188 2ebe
000003b0: 5ea0 033e 65a7 45bc 4c89 2c3e 3918 99be
000003c0: fb6a 3f3e 1cb5 d13d b47e 5dbd 15c4 423e
000003d0: 41dd 10be 531f 6e3e 0e4d c63c c49b 003e
000003e0: a8f9 a33d 0345 293e a83d 423e 10f7 3f3e
000003f0: 7bb1 803d 2ca3 823e c22b 47bc c74d 313e
-0.12959157 -0.16904561 -0.10371449 -0.13307491 0.12139703 -0.059906103 -0.16816199 -0.25474918
0.068114854 -0.2642921 -0.060903143 -0.19058985 -0.24327163 0.1705629 -0.109634265 -0.10267598
-0.07925509 0.24262722 0.0059238966 0.17501852 -0.16272049 0.26466125 0.03520995 0.18360423
-0.15296698 -0.031161632 0.19631466 -0.24775909 0.053282354 -0.27011904 -0.12172322 0.029012782
0.30187047 -0.07860903 0.19832513 0.11872575 0.1580488 0.28766453 0.26368883 0.25403064
0.04671767 0.025666168 -0.17340174 0.07546305 -0.22648743 0.22725646 -0.009953589 -0.21778493
0.22806828 -0.15758443 -0.1600902 0.029920481 -0.035056453 -0.11004229 0.091975294 -0.08874173
-0.035787243 -0.05911728 0.27514657 -0.043645393 -0.0367534 0.071628764 0.27531475 0.06971532
-0.08323746 -0.06237984 0.013858899 0.18766388 -0.22258449 0.00958244 -0.25822058 0.14978826
0.27409577 -0.2825269 0.26863128 0.25463745 0.28857973 -0.017211763 0.08288932 -0.22015415
0.023492992 -0.0046553565 0.18430416 -0.14919119 -0.21488151 0.23855181 0.1955903 0.13093773
-0.21128075 -0.12145098 0.109590985 -0.05381916 -0.12500262 -0.043148976 -0.036145967 -0.16743037
-0.016652938 -0.0011820811 0.16863948 -0.29899663 -0.10746205 -0.019853743 -0.03508961 0.10623164
0.28956679 -0.16822466 0.22527628 0.09183811 -0.16309977 0.23697959 -0.26109603 0.10939127
0.0751674 0.025738804 -0.21717998 0.23341532 -0.023715273 -0.1685909 0.116719216 -0.25083232
-0.20056021 0.001081276 0.12879851 -0.2932489 -0.07758828 -0.24033822 0.17374295 -0.1562677
0.12330167 0.004235304 0.17750663 0.06422224 0.28234324 -0.15874867 -0.12759437 0.23171923
-0.006668993 -0.24148242 0.16215931 -0.15476948 -0.25116903 0.037280124 -0.08983713 -0.2893497
0.15714599 -0.05621893 -0.060996797 -0.2554762 0.0670007 -0.08803195 -0.18180288 -0.26265952
0.10638894 0.19909197 0.30316523 0.24711567 0.12720284 0.21605769 -0.15129548 0.26303706
-0.23853189 0.11805471 -0.233963 0.08543419 -0.16293892 -0.14244375 -0.16683537 -0.15355724
0.21674825 0.19449934 -0.0633501 0.18693553 -0.17884073 0.2773049 -0.04110936 -0.041643035
-0.20372584 0.2688567 -0.18030836 0.097847946 0.071667455 0.1796745 0.17061552 0.05881375
-0.092667 0.027320862 -0.023033554 -0.1320195 -0.2726602 0.22998452 -0.21718857 0.11503668
0.16450702 0.28143916 -0.001958287 0.2824187 0.15075448 -0.254215 -0.18139583 -0.07571313
-0.0358834 0.17844604 -0.13365278 0.24483159 0.053344183 0.12112311 0.06497884 0.13930357
-0.30315477 0.19717553 0.012186086 0.16825429 -0.12376052 -0.19456732 -0.2665795 0.1796303
-0.20104042 -0.12057175 0.16666403 -0.17638656 0.2985567 -0.050522383 0.021465238 -0.044896472
0.2731078 -0.11298675 0.18722004 0.22033402 0.10737804 0.024124913 -0.13221443 0.23054667
-0.052230697 0.10317103 0.14380576 -0.17044355 0.12854144 -0.012063836 0.1684925 -0.29901293
0.18693154 0.10239622 -0.05407591 0.19020112 -0.14146902 0.23254137 0.024206664 0.1255942
0.080066025 0.16530232 0.18968832 0.1874659 0.06283852 0.25515115 -0.012156429 0.17314826

linear2.weight f4 [3, 256]
00000000: 675b fe3c fc86 da3c 00db b2b9 2280 1a3d
00000010: 36b3 60bc 71b9 3dbd 127e 63bd 36b0 c4bc
00000020: 0921 78bd 3933 3a3b 4f0c 5fbb b24f a93c
00000030: 947a 4a3c 76f6 6abd e67e 09bd 534f 8f39
00000040: 8337 2fbd b862 59bd abbc 523d d1b5 0abd
00000050: 9f4b 78bd 38fb 5c3c 5d5c fdbc 9d33 403d
00000060: a4a1 033d 3f43 2ebd 011d b839 8852 ec3c
00000070: e0fa 07bd 2f26 5e3d 277a 123c 1224 053d
00000080: 4098 dfbc e9a7 c43b 835f 65bc 7e70 353d
00000090: faf8 fabc e6f2 273d 17cf 443c ca90 43bd
000000a0: c0ba fa3c 3c8f b23c 0ff3 1bbd e433 5d3d
000000b0: a7c6 4ebd fadb 1f3d 3948 783d 7fd4 bfbc
000000c0: f3ec 273d 16d1 e1bc 096a 163c 8ace 573b
000000d0: 4b35 363c 8586 96bc f811 06bd 8883 63bd
000000e0: 5041 803c e324 17bd eff5 3cbd 2b22 a1bb
000000f0: b117 723d 0c14 333c d709 a23c 5778 b4bb
00000100: 943a 073d a2d6 f43c 6c30 053d 7a73 bc3c
00000110: 057f 053d 2101 573d 5cd1 2b3d 3102 1fbc
00000120: 2615 703d 2a97 6f3d 9ef1 44bc ded3 dbba
00000130: 9794 ed3c ee57 e43c fe4a 703d 8039 673d
00000140: ec83 253d 66ce bb3c 9f40 ddbc d578 6dbd
00000150: 1613 db3c ac9c 77bd 1fd9 66bd 809d 3a3a
00000160: 4235 4abd bfa0 313d c8ef 1b3c 689e f9bc
00000170: c26b 40ba d5c0 1bbd 8308 e23c 86f1 d6bc
00000180: 0048 acbb dccf 22bc a3c0 08bd 68a2 613d
00000190: 90e9 cdbc 1df9 17bc 0d63 8cbc 81ad c73b
000001a0: 49c5 cb3c 96e1 2ebd ebd3 68bd 17a2 2e3d
000001b0: 6718 6ebd e435 21bd 977f c8bc 3d7e 3ebd
000001c0: 2161 133d 68cf 9c3c 45c0 9a3c fcef ed3b
000001d0: 84a8 13bd 7fca 28bd 2d6c f9bc 537a cabc
000001e0: 8db6 05bd 2d43 52bd c0d8 553d 834d 8f3b
000001f0: 279f 683d b343 4abc 9395 23bd a184 34bd
00000200: ab06 543d 1766 1cbd ddf9 dcbc 8a29 dfbb
00000210: 7bc3 4b3d dfc5 2b3b 54eb 5ebd 99dd 5abd
00000220: 459c 3dbd 320d 663d 4a53 da3c 04c1 e93b
00000230: 39e9 9abc 8d8b 84bc 32f4 273d 7063 34bd
00000240: da34 50bd e8e7 13bc d58a 563d cca2 df3b
00000250: 2bd3 053d 0024 1e3c 1901 43bd 38ea 193d
00000260: ecb4 dc3b 2831 b0bc 2cc1 08bd 858a 06bb
00000270: 8b81 87bb 0901 683d 9bf4 5f3b c7d5 a2bb
00000280: 2901 fabc 8556 c43c 5000 d13b fd91 6a3d
00000290: e1b7 053d 2871 54bd ceeb 7ebc 6046 57bd
000002a0: 0a2c 31bc 1c15 303d 4a69 93bc 3d48 323d
000002b0: d32d 73bd 1d3f 42bc b556 54bd 3f26 153d
000002c0: d55d 61bc 12b2 f03c 5f38 43bd 1aff 983c
000002d0: eb1e 263c d12c 583c c6a7 0fbc 405b 03bd
000002e0: 4cb5 6dbd 6cdb 683d 3d73 533d 2d5f b33c
000002f0: b41d 123d c106 56bd 48ad b23c 0963 7abc
00000300: 9d40 463d eb4d 503d ba44 73bd 187c 87b7
00000310: 6dd3 7fbd 8739 33bd 6229 233d 1952 7cbd
00000320: ea8e fa3c bc3b 313d 40a6 2cbd 5d4c 15bd
00000330: d0e6 263c 1249 853c dadb 35bd c8e9 bcbb
00000340: 16a7 05bb 4a62 8839 4a9b 623c cefd 4abd
00000350: 15aa 5e3a 5156 9dbb 7c69 683d 3122 773d
00000360: 50e7 763d 2404 d13c 3a94 33bd 4999 813c
00000370: e100 493d f7d4 c8bc e619 c0bc 5971 99bc
00000380: 8a74 69bd 2bfd 59bd 3cf5 aabc 8fe6 c13c
00000390: 26a3 66bd 4e91 dcbc cfed e5bc 4593 e9bc
000003a0: 0254 073d 8988 3cbd 1129 5cbd 0ae4 21bd
000003b0: f847 603d 43a1 a93c 6824 d33c 1d49 cabc
000003c0: 1e89 9b3c eff5 1d3d cf24 14bd b9cc c2bc
000003d0: 96fa 20bd 4501 ac3c bfd9 d93b f359 113d
000003e0: ad4a fb3c b8f8 6d3d 44f2 32bd 8915 06bc
000003f0: e6fb 06bc cd59 dc3a 8bb9 553c 30f9 90bc
0.031049443 0.026675694 -0.00034113973 0.037719853 -0.013714602 -0.04631943 -0.055540152 -0.024009805
-0.06057838 0.0028411879 -0.0034034436 0.020667884 0.012358326 -0.05736395 -0.033568285 0.00027334187
-0.04277755 -0.05307266 0.05144946 -0.0338648 -0.060618993 0.01348763 -0.030927831 0.046924222
0.032136574 -0.0425446 0.00035116824 0.028847948 -0.033198237 0.054235633 0.008940256 0.032505102
-0.027294278 0.0060014618 -0.013999823 0.044296734 -0.0306363 0.04100313 0.012012265 -0.047745503
0.030606627 0.021796815 -0.038073596 0.054004565 -0.05048242 0.039028145 0.060615752 -0.023416756
0.040997457 -0.02756552 0.009180554 0.0032929503 0.0111211045 -0.01837469 -0.03273198 -0.05554536
0.015656143 -0.036900412 -0.046132978 -0.004917403 0.059104625 0.0109300725 0.019780083 -0.0055075097
0.03301485 0.029887501 0.03251688 0.023004282 0.03259184 0.05249131 0.041947708 -0.009705112
0.05861392 0.05849377 -0.012020497 -0.0016771515 0.029001517 0.02787396 0.058665268 0.05645132
0.040409014 0.022925567 -0.027008353 -0.057976563 0.0267425 -0.06045215 -0.056359407 0.0007118806
-0.049367197 0.04336619 0.0095176175 -0.030471042 -0.0007340276 -0.038025696 0.02759195 -0.026238214
-0.0052576065 -0.009937253 -0.033386838 0.055086523 -0.025135785 -0.009275702 -0.017137075 0.0060936813
0.024874346 -0.042695604 -0.056842726 0.04263505 -0.05812874 -0.039358035 -0.024474902 -0.04650711
0.0359813 0.019141868 0.01889051 0.0072612744 -0.03604938 -0.04120874 -0.03044709 -0.024716532
-0.032644797 -0.051333595 0.052208662 0.004373254 0.056792405 -0.012345242 -0.039937567 -0.044071797
0.05176417 -0.038183298 -0.026974613 -0.0068103718 0.04974697 0.002621047 -0.054423645 -0.05343399
-0.04629161 0.056164928 0.026651043 0.007133605 -0.018910037 -0.016179824 0.041004367 -0.044040143
-0.050831653 -0.009027459 0.052378494 0.006824827 0.03267209 0.009652138 -0.04760847 0.037576884
0.0067354348 -0.021507815 -0.033387348 -0.0020529341 -0.004135316 0.056641612 0.0034172896 -0.004969332
-0.030518131 0.023967037 0.006378211 0.05726813 0.032646064 -0.051865727 -0.01555915 -0.05255735
-0.010813722 0.04298888 -0.017994542 0.043525923 -0.059369873 -0.011855868 -0.051840503 0.036413427
-0.013755281 0.029381786 -0.04766118 0.01867633 0.010139207 0.013194279 -0.008768028 -0.032069445
-0.058034226 0.056849882 0.05162357 0.02189597 0.03567286 -0.052252535 0.021811143 -0.015282401
0.048401464 0.05085556 -0.059391715 -1.615104e-05 -0.06245749 -0.043756034 0.039834388 -0.061601732
0.030585725 0.043269858 -0.042150736 -0.03644978 0.010186866 0.016270194 -0.04439912 -0.0057651736
-0.002039378 0.00026013172 0.013830969 -0.049558453 0.0008493972 -0.0048015495 0.056741223 0.06033534
0.06027919 0.02551467 -0.04384253 0.015820162 0.049073104 -0.024515612 -0.02344985 -0.018730806
-0.056995906 -0.053219955 -0.02086889 0.02366951 -0.056307934 -0.026924755 -0.028067498 -0.028512606
0.0330391 -0.046028648 -0.0537501 -0.039524116 0.054756135 0.020706778 0.025774196 -0.024693066
0.018986281 0.03856462 -0.036167916 -0.02377926 -0.039301477 0.0209967 0.006648272 0.035486173
0.030675257 0.058098525 -0.043688074 -0.008183845 -0.008238768 0.0016811431 0.013044725 -0.017696947

linear2.bias f4 [3]
00000000: 2ae8 2bbc dd39 4e3c 5588 8ebc
-0.010492364 0.012587038 -0.017398993
