model/model.pth (torch, 16787 bytes, 4 tensors)

linear1.weight f4 [256, 11]
0.27765033 -0.036748737 -0.10198443 0.0013445616 -0.0228303 0.046123624 0.18470758 -0.007735885
-0.21229638 0.021236084 0.072054446 -0.13736854 -0.20956951 0.22530258 0.26932377 -0.0074281096
0.12966388 0.26761645 -0.2086839 0.07541689 0.016441375 -0.21984118 0.2605015 0.06261036
0.29551405 0.2632795 -0.01867973 0.08682674 -0.11576295 -0.06477501 -0.1172226 0.16356258
-0.21265149 -0.049802728 -0.18328801 0.29664117 -0.27009648 -0.22138624 0.21450317 -0.09655978
0.23411866 -0.26443854 -0.07251894 -0.012604138 0.28866428 -0.06494166 0.029784739 0.29643273
-0.28963706 -0.21403015 0.033121347 -0.2453751 0.17389378 0.21545315 0.2505591 -0.28477275
0.068093896 0.26535648 -0.19460303 -0.24899547 0.02357477 0.016864717 0.037433635 -0.23526788
0.17692652 0.00061424193 -0.17694129 -0.12530044 -0.24461764 0.25507718 0.2188579 0.23623449
-0.11144748 0.30516607 -0.08837119 -0.28640926 -0.24656847 0.22427714 -0.18405128 -0.09486647
0.17430004 -0.114794336 0.016001701 -0.16538061 0.24075553 0.24619041 0.21246515 -0.0039533456
0.18534046 0.22425377 -0.22220178 -0.10432105 0.26265424 0.055881917 0.036572665 -0.12910223
-0.14537188 -0.06913565 -0.13925545 -0.08453731 -0.07709159 -0.101908594 -0.10964912 -0.1247831
-0.117344186 0.06570774 0.017147206 0.027272338 -0.1287065 0.25458914 -0.194565 0.09073722
-0.06901568 -0.15820582 0.006374955 0.17764649 -0.28889534 -0.2569442 -0.16293296 0.08253586
-0.029753625 -0.05793901 0.16647133 -0.19142282 -0.28327867 -0.21092163 0.06616196 0.20173705
0.18182063 -0.29867443 0.22922854 -0.029742867 -0.30139628 -0.1849982 -0.1766988 -0.030668467
-0.103314 0.23567301 -0.27157488 -0.04183045 0.17249137 -0.28704667 0.022331208 0.04950273
-0.16033047 -0.19183174 -0.19834185 -0.0004307725 0.27784282 0.0319871 -0.10826451 0.2201017
0.17543018 -0.07890863 -0.18231808 0.27461398 -0.078634486 -0.27155373 -0.19891739 0.13766387
0.24547023 -0.29665652 0.008235803 0.28424457 0.17811292 -0.20717302 -0.15115227 0.06370884
-0.18384472 -0.1213534 0.28788495 -0.10011312 0.21942183 0.038642634 0.29036152 0.1055602
-0.21957825 0.0014569461 0.14935774 0.2213608 0.13873217 0.123752624 -0.0033760369 0.28625217
-0.023390122 0.12183083 0.13802432 0.21276312 -0.116839394 -0.16953224 -0.24850534 0.07109638
-0.0011326373 -0.25143656 0.09298735 0.012048595 -0.09120263 0.26578826 -0.22275369 0.14535692
-0.22744568 -0.00731197 0.01355533 0.2164501 -0.113245964 -0.12159507 -0.0778265 -0.22832258
-0.13785984 -0.05216088 0.29307002 0.017790765 -0.09673852 0.23189941 0.29541683 0.27876747
-0.14486623 0.009783946 0.17271641 -0.16285132 -0.24224567 -0.25192592 0.08633828 -0.1412626
-0.020316387 -0.076125875 0.27670473 0.1483604 0.1278705 -0.10788512 0.18041895 -0.15704457
0.22353202 0.30099547 -0.14257032 0.09818908 -0.088853896 -0.02563709 -0.20711666 -0.27688262
0.057878025 0.1431404 -0.26120132 -0.025142431 -0.0001603663 -0.006093383 0.12497602 -0.29792988
0.045273066 -0.2705878 -0.08872785 0.012762481 -0.18080111 0.29608357 0.10564354 0.020373106
00000000: 2f28 8e3e d885 16bd 36dd d0bd 003c b03a
00000010: 9c06 bbbc 20ec 3c3d fc23 3d3e 4f7d fdbb
00000020: 3964 59be 4cf7 ad3c 4891 933d 57aa 0cbe
00000030: 6499 56be b8b5 663e cee4 893e 8067 f3bb
00000040: 9cc6 043e 0605 893e 3bb1 55be 2c74 9a3d
00000050: 10b0 863c 0c1e 61be 7460 853e dc39 803d
00000060: 9e4d 973e 92cc 863e 3c06 99bc 38d2 b13d
00000070: 2015 edbd c3a8 84bd 6712 f0bd f37c 273e
00000080: 50c1 59be f2fd 4bbd daaf 3bbe 5ae1 973e
00000090: 164a 8abe 13b3 62be b8a6 5b3e 22c1 c5bd
000000a0: cdbc 6f3e 7d64 87be cf84 94bd 9681 4ebc
000000b0: cecb 933e 2200 85bd 20ff f33c 08c6 973e
000000c0: 4f4b 94be b82a 5bbe 40aa 073d 9c43 7bbe
000000d0: 3611 323e c09f 5c3e 4849 803e bccd 91be
000000e0: d074 8b3d cedc 873e 0446 47be abf8 7ebe
000000f0: e01f c13c e027 8a3c 0354 193d 10ea 70be
00000100: 3a2c 353e 1405 213a 1930 35be c24e 00be
00000110: 0c7d 7abe 7a99 823e 491c 603e 74e7 713e
00000120: 943e e4bd ba3e 9c3e f4fb b4bd 3ca4 92be
00000130: 727c 7cbe e8a8 653e f077 3cbe 5a49 c2bd
00000140: b67b 323e 4b19 ebbd 0016 833c 8959 29be
00000150: 9e88 763e 5719 7c3e 7790 593e 118b 81bb
00000160: e4c9 3d3e c8a2 653e dd88 63be 46a6 d5bd
00000170: 9e7a 863e 70e4 643d 38cd 153d 6033 04be
00000180: 5edc 14be fe96 8dbd fb98 0ebe e621 adbd
00000190: 32e2 9dbd 74b5 d0bd b88f e0bd 488e ffbd
000001a0: 2652 f0bd c891 863d 4c78 8c3c 3d6a df3c
000001b0: a3cb 03be 8259 823e 0c3c 47be 70d4 b93d
000001c0: 1858 8dbd b500 22be 00e5 d03b f6e8 353e
000001d0: 17ea 93be 318e 83be e6d7 26be 9008 a93d
000001e0: e0bd f3bc 7551 6dbd 7677 2a3e 5804 44be
000001f0: e709 91be d7fb 57be ec7f 873d 2894 4e3e
00000200: 302f 3a3e dbeb 98be e3ba 6a3e 50a7 f3bc
00000210: 9d50 9abe 2b70 3dbe 88f0 34be 703c fbbc
00000220: 4a96 d3bd 4454 713e dd0b 8bbe 6856 2bbd
00000230: 94a1 303e c8f7 92be f0ef b63c 60c3 4a3d
00000240: ac2d 24be 8a6f 44be 201a 4bbe 4ed9 e1b9
00000250: 6a41 8e3e e804 033d c9b9 ddbd 5762 613e
00000260: f8a3 333e d99a a1bd 97b1 3abe 349a 8c3e
00000270: 1e0b a1bd 1709 8bbe 00b1 4bbe c2f7 0c3e
00000280: 8c5c 7b3e 5de3 97be 76ef 063c 8188 913e
00000290: 3c63 363e 2a25 54be a9c7 1abe c879 823d
000002a0: ca41 3cbe 2288 f8bd a865 933e 1c08 cdbd
000002b0: 1eb0 603e bd47 1e3d 44aa 943e f22f d83d
000002c0: 1fd9 60be 00f7 be3a 3cf1 183e 68ac 623e
000002d0: ce0f 0e3e 0472 fd3d 8040 5dbb a58f 923e
000002e0: a49c bfbc 7182 f93d 3f56 0d3e 93de 593e
000002f0: 7e49 efbd dc99 2dbe 2f78 7ebe fb9a 913d
00000300: 0075 94ba 4bbc 80be 2770 be3d 7867 453c
00000310: 72c8 babd 6615 883e 8b19 64be 72d8 143e
00000320: 85e7 68be 4099 efbb 2d17 5e3c 18a5 5d3e
00000330: 80ed e7bd d606 f9bd 8063 9fbd 65cd 69be
00000340: 212b 0dbe a6a6 55bd 460d 963e f0bd 913c
00000350: d81e c6bd 0a77 6d3e e040 973e 9cba 8e3e
00000360: d057 14be d84c 203c 92dc 303e 7fc2 26be
00000370: 400f 78be 6ffc 80be 20d2 b03d 25a7 10be
00000380: 8d6e a6bc e2e7 9bbd 3eac 8d3e caeb 173e
00000390: 7cf0 023e e0f2 dcbd bfbf 383e 4bd0 20be
000003a0: 94e5 643e 141c 9a3e f4fd 11be 5b17 c93d
000003b0: 08f9 b5bd e004 d2bc 6416 54be 8fc3 8dbe
000003c0: 8211 6d3d 6693 123e 2ebc 85be 80f7 cdbc
000003d0: 0028 28b9 00ab c7bb 6df3 ff3d 448a 98be
000003e0: 4070 393d 7c8a 8abe f2b6 b5bd ba19 513c
000003f0: ed23 39be 4498 973e a45b d83d 80e5 a63c

linear1.bias f4 [256]
0.15104452 -0.10423726 0.0003722322 0.128783 -0.23898901 0.29527393 0.14427216 -0.18449157
-0.07340842 0.2262652 -0.11776249 0.028060567 -0.25528216 0.03444118 -0.018812211 0.23157799
-0.02905304 0.10044309 0.17272303 0.05676204 0.08580906 -0.028361265 -0.09061546 -0.17160664
-0.29755828 0.29156026 0.3019768 -0.097167365 -0.24805167 0.14210631 -0.17590854 0.22567834
0.14324313 0.30605567 -0.28345394 0.2049963 0.22554025 0.00035635673 -0.10250631 0.29121798
-0.1345492 0.019858152 -0.20287831 -0.0041280524 0.11258529 -0.27760884 0.035748698 0.006718721
-0.23610169 0.12240616 0.24535099 -0.04485025 0.18995802 -0.0884629 -0.2239525 0.0013861291
0.1446751 0.16774882 -0.09671891 -0.07988679 -0.13602003 -0.09478064 0.08371116 -0.24107179
0.26980755 -0.23862725 0.19490317 0.073520266 0.13929184 -0.026599266 -0.14446151 0.011670077
-0.2096604 0.22521387 -0.02310431 0.21479808 0.14470175 0.21581317 -0.058788612 0.022354638
-0.14779215 -0.21892609 0.12794268 -0.19897346 -0.058549523 -0.15215568 -0.1453572 -0.1616168
-0.13006236 0.17870235 -0.0841089 -0.16802353 0.098912425 -0.28967288 -0.078425124 0.27246505
0.17767054 -0.13102902 -0.08400105 0.10702719 -0.030175555 0.21482058 -0.25457424 0.07896071
0.25604066 0.100898944 0.24075326 0.24190426 0.09759133 0.21819109 -0.045039184 0.08248801
-0.17370142 0.2903068 0.20223911 -0.18702003 0.060205817 -0.28064895 0.023860665 -0.27287915
-0.2848083 0.2812347 0.27296484 0.25565737 -0.11057969 0.017212583 -0.12209475 0.17150386
-0.15354747 0.1204027 -0.27878278 -0.25432152 -0.21446219 0.037513986 -0.070371665 0.22091602
-0.11023894 0.15361129 -0.083578 0.06103993 -0.27530158 0.17527363 0.17914069 0.027124831
0.0047308803 0.2835626 0.14424196 -0.1664961 -0.29586232 -0.091525465 -0.22882996 -0.21010458
-0.28820986 0.21105404 -0.25303486 -0.17823818 0.29733446 0.2531237 0.056489076 -0.06128351
0.1933357 -0.13547681 0.05813524 0.23132597 0.004860624 0.024020325 0.038755942 -0.057321563
-0.28482652 -0.21754627 0.058061812 0.22580291 0.14183506 0.16549984 0.085266374 0.22710074
-0.22776227 0.08669298 0.17899221 0.2593965 -0.07312822 -0.22496101 -0.010827552 0.032487042
0.042791806 -0.009855905 0.22374652 0.015543718 0.25854948 -0.14738595 0.2797908 -0.27054048
0.09253574 -0.1352055 -0.10847624 0.102674484 -0.13629076 0.25553322 0.0767831 -0.13716273
-0.07407534 0.24041128 0.19924341 -0.01847924 0.08980079 0.15269685 0.1362129 -0.24963689
-0.12381405 -0.16626598 0.19752812 0.17845128 0.29044664 -0.18352656 -0.23555 -0.15691206
0.106595725 0.29038393 0.08903716 0.2277891 -0.22061434 -0.17038757 -0.225084 0.20573698
-0.100244276 0.26986572 -0.14600661 0.07632969 -0.2047545 -0.19639237 0.21290848 -0.0934476
0.10919199 0.13195962 0.28866014 -0.15696211 -0.010030299 0.15424512 0.113516346 0.2310749
0.17060788 0.25141025 0.026398093 0.14147872 -0.23456171 -0.1454224 -0.21030782 -0.06480346
-0.1360037 0.28233907 -0.065724514 -0.07708275 -0.054289207 -0.015106323 0.15594426 0.1187111
00000000: 6aab 1a3e 587a d5bd 2928 c339 b1df 033e
00000010: 89b9 74be 252e 973e 15bc 133e 5ceb 3cbe
00000020: 2757 96bd 11b2 673e 762d f1bd 46df e53c
00000030: 58b4 82be 3212 0d3d 111c 9abc c822 6d3e
00000040: a400 eebc 1bb5 cd3d 4ede 303e 507f 683d
00000050: a9bc af3d e255 e8bc 9994 b9bd a7b9 2fbe
00000060: 8f59 98be 6347 953e b49c 9a3e afff c6bd
00000070: 4201 7ebe 5184 113e 5e21 34be 3918 673e
00000080: 54ae 123e 54b3 9c3e e020 91be 8dea 513e
00000090: 06f4 663e 64d5 ba39 d4ee d1bd 861a 953e
000000a0: 44c7 09be 90ad a23c 55bf 4fbe 9d44 87bb
000000b0: 1e93 e63d bf22 8ebe 3a6d 123d b728 dc3b
000000c0: a4c4 71be 15b0 fa3d 4a3d 7b3e e5b4 37bd
000000d0: 5b84 423e 092c b5bd ce53 65be c6ae b53a
000000e0: b625 143e 59c6 2b3e 9014 c6bd af9b a3bd
000000f0: d648 0bbe 5a1c c2bd c270 ab3d 86db 76be
00000100: 3724 8a3e b45a 74be b294 473e cb91 963d
00000110: 85a2 0e3e b4e6 d9bc b8ed 13be da33 3f3c
00000120: 37b1 56be 779e 663e 4045 bdbc 07f4 5b3e
00000130: b22c 143e 21fe 5c3e 54cc 70bd 1321 b73c
00000140: d356 17be 292e 60be 6803 033e b3bf 4bbe
00000150: a0d1 6fbd b3ce 1bbe 85d8 14be e07e 25be
00000160: 112f 05be c0fd 363e 4941 acbd 5c0e 2cbe
00000170: 9992 ca3d 0150 94be 5a9d a0bd 8a80 8b3e
00000180: 44ef 353e 792c 06be be08 acbd 1231 db3d
00000190: ba32 f7bc edf9 5b3e 8e57 82be 27b6 a13d
000001a0: c317 833e 1ba4 ce3d 0688 763e c0b5 773e
000001b0: f7dd c73d 7c6d 5f3e 027b 38bd 79ef a83d
000001c0: c9de 31be 18a3 943e c517 4f3e 2e82 3fbe
000001d0: 609a 763d 38b1 8fbe 7177 c33c d1b6 8bbe
000001e0: 65d2 91be fffd 8f3e 0cc2 8b3e 86e5 823e
000001f0: 9b77 e2bd 6701 8d3c d00c fabd b59e 2f3e
00000200: 8c3b 1dbe b195 f63d 9ebc 8ebe 6e36 82be
00000210: fa9b 5bbe 44a8 193d 051f 90bd cf37 623e
00000220: f4c4 e1bd 474c 1d3e f12a abbd 0105 7a3d
00000230: 54f4 8cbe ee7a 333e a870 373e e534 de3c
00000240: 8005 9b3b 1e2f 913e 2ab4 133e f47d 2abe
00000250: 447b 97be b471 bbbd 6752 6abe a825 57be
00000260: 3e90 93be 8d1e 583e c98d 81be 1284 36be
00000270: 393c 983e 6e99 813e 1761 673d 6b04 7bbd
00000280: cbf9 453e 6fba 0abe 381f 6e3d b7e0 6c3e
00000290: df45 9f3b 46c6 c43c 8dbe 1e3d 04ca 6abd
000002a0: c8d4 91be 73c4 5ebe 39d2 6d3d e138 673e
000002b0: 363d 113e ca78 293e 23a0 ae3d 198d 683e
000002c0: 833a 69be 178c b13d bc49 373e 9ecf 843e
000002d0: 40c4 95bd 2e5c 66be 0b66 31bc 2211 053d
000002e0: 7646 2f3d a97a 21bc cf1d 653e 14ab 7e3c
000002f0: 9960 843e 58ec 16be bd40 8f3e 4884 8abe
00000300: 6183 bd3d 5073 0abe ca28 debd 0047 d23d
00000310: ce8f 0bbe 40d5 823e 7540 9d3d 6374 0cbe
00000320: d0b4 97bd 602e 763e 7706 4c3e c661 97bc
00000330: 7ae9 b73d 905c 1c3e 657b 0b3e d0a0 7fbe
00000340: 3892 fdbd a141 2abe d044 4a3e efbb 363e
00000350: 6cb5 943e 63ee 3bbe 0534 71be 8ead 20be
00000360: dc4e da3d 34ad 943e 1d59 b63d 8c41 693e
00000370: bae8 61be 147a 2ebe 6c7c 66be b7ac 523e
00000380: df4c cdbd d72b 8a3e c282 15be be52 9c3d
00000390: 2aab 51be 151b 49be ae04 5a3e 7561 bfbd
000003a0: 0da0 df3d 6c20 073e 43cb 933e adba 20be
000003b0: 2056 24bc 6ff2 1d3e 427b e83d e69e 6c3e
000003c0: d5b3 2e3e d8b8 803e d040 d83c ccdf 103e
000003d0: f230 70be 9ce9 14be ef5a 57be adb7 84bd
000003e0: 8e44 0bbe bf8e 903e 939a 86bd 90dd 9dbd
000003f0: 5c5e 5ebd 8380 77bc daaf 1f3e ce1e f33d

linear2.weight f4 [3, 256]
0.010364832 0.028462633 -0.034617063 -0.050474994 -0.036094204 0.06333395 -0.023514697 0.019437626
0.04024206 0.041162025 -0.027555168 0.017486358 0.011399068 0.016186807 0.06272512 0.03022603
-0.022424545 0.016615925 -0.04103704 0.06299178 0.051003758 0.01682973 0.048919328 -0.0013870448
0.028452545 -0.05905775 0.04527498 -0.013099764 0.06151706 0.017277427 0.038813084 0.034997802
-0.015557336 0.032991372 0.04688151 -0.031853303 -0.029735776 -0.019421108 0.044805203 -0.057817608
0.018356131 0.055203818 0.05335763 0.023250727 -0.030893253 -0.03214615 0.033442426 -0.03654653
0.009388633 -0.024805784 -0.06029775 0.021087207 -0.06122071 0.014178954 0.032842696 0.042949595
-0.05670374 -0.03514354 0.017602174 0.039089255 -0.03676763 0.0015603974 0.029699061 -0.016961731
0.047789574 -0.06133073 -0.013175677 -0.04636204 -0.03252285 0.011140293 0.043875482 -0.0027603966
-0.012670336 0.0017290661 -0.05818613 0.04818582 -0.039267436 -0.048162144 0.011269616 -0.022776805
-0.054343317 0.018735748 0.036747742 -0.0498459 0.040719323 0.0020841658 -0.056122728 -0.030948065
0.01135616 -0.04427239 -0.048519004 0.04829128 -0.043996423 -0.025612019 -0.035042167 -0.062497415
0.059139136 -0.025677336 -0.02097375 -0.051983405 0.061672006 0.052369244 -0.011637017 -0.016990632
-0.042494427 0.035473052 0.052105688 0.043061517 -0.06121177 -0.00737583 -0.001976551 -0.033285674
0.026359675 0.05724574 0.018280298 0.0030056238 0.056643415 -0.004711561 -0.04933152 0.008160517
-0.040304452 0.017921487 0.018090826 -0.0045737396 0.049348276 -0.027544174 0.033210646 0.0041018813
0.04824721 -0.023910722 -0.012769319 -0.033123627 0.03226717 0.00645359 0.014922907 -0.032191124
-0.03377921 0.041362163 0.046143595 -0.05538017 0.016602807 -0.027520511 -0.051166944 -0.0153528955
0.04418596 0.03217653 0.0637536 0.014208717 -0.043215707 -0.022285182 -0.060511116 0.0031131587
-0.030002635 -0.046929535 -0.055292904 -0.056109343 -0.009563656 0.0054134857 -0.004314674 -0.017133508
0.024892824 -0.008476842 -0.042645577 -0.060800422 -0.025715554 0.06250146 0.057251435 0.052790537
-0.052936047 -0.05913734 0.004263515 0.024748622 -0.061578058 0.011960186 -0.044625163 0.044751614
-0.05571597 -0.06017101 0.05070882 0.06130121 -0.03439752 -0.049561277 -0.03233711 -0.052161105
0.060609713 -0.021225143 -0.012627339 0.054434437 0.0045655775 0.007048794 -0.03401422 -0.0404999
0.056569684 -0.049772855 -0.022671498 0.04840345 0.056862622 -0.006380846 0.013578668 -0.005236864
-0.015021186 -0.020310704 0.028954143 0.017336845 -0.027189298 -0.059659608 -0.051101536 0.042257216
-0.03512773 0.007512097 0.0053006923 -0.053159438 0.0032138797 -0.018092796 -0.05410918 -0.028123528
0.012902677 0.013376247 -0.025829073 0.010086388 0.036068596 -0.010131687 -0.008595817 -0.05019874
0.019313483 0.020114295 -0.047624778 0.039907414 0.052961044 -0.0059419423 -0.006381611 -0.048014924
0.015706373 -0.025120324 0.005600307 0.008831201 0.0014380366 -0.040304158 0.009047841 -0.03995769
-0.054735336 -0.040119573 -0.03848233 0.0101331705 0.05908954 -0.006785244 0.03199867 -0.015841596
0.024931328 -0.04749675 0.043553755 -0.056735598 0.04759636 -0.05373797 0.033902522 0.061172087
00000000: 42d1 293c 782a e93c 9fca 0dbd debe 4ebd
00000010: 84d7 13bd 3bb5 813d e5a1 c0bc a83b 9f3c
00000020: dcd4 243d 8399 283d 60bb e1bc 8d3f 8f3c
00000030: 28c3 3a3c 329a 843c 0776 803d 949c f73c
00000040: aeb3 b7bc 1f1e 883c 7516 28bd d601 813d
00000050: 51e9 503d 80de 893c a25f 483d 80cd b5ba
00000060: 5015 e93c 8ae6 71bd 4272 393d 64a0 56bc
00000070: 50f9 7b3d 6489 8d3c 78fa 1e3d db59 0f3d
00000080: 32e4 7ebc f621 073d d406 403d 9c78 02bd
00000090: 7198 f3bc 0419 9fbc a985 373d 28d2 6cbd
000000a0: 995f 963c 661d 623d 888d 5a3d 4f78 be3c
000000b0: d913 fdbc aeab 03bd edfa 083d d0b1 15bd
000000c0: c8d2 193c 8035 cbbc c6fa 76bd 14bf ac3c
000000d0: 91c2 7abd d84e 683c 1086 063d eaeb 2f3d
000000e0: 2e42 68bd acf2 0fbd 6f32 903c 0e1c 203d
000000f0: a899 16bd 4086 cc3a 724b f33c 54f3 8abc
00000100: 00bf 433d ee35 7bbd cbde 57bc 1fe6 3dbd
00000110: ae36 05bd c785 363c c7b6 333d c5e7 34bb
00000120: 3e97 4fbc d5a1 e23a 9454 6ebd 7f5e 453d
00000130: e4d6 20bd ab45 45bd 32a4 383c 6c96 babc
00000140: 1997 5ebd b67b 993c cd84 163d 372b 4cbd
00000150: 4ec9 263d 8096 083b f2e0 65bd cc86 fdbc
00000160: 300f 3a3c f756 35bd ddbb 46bd 14cd 453d
00000170: 9835 34bd 4cd0 d1bc 6088 0fbd 4afd 7fbd
00000180: e13b 723d 4759 d2bc 24d1 abbc 8dec 54bd
00000190: c99b 7c3d 2281 563d 30a9 3ebc f02f 8bbc
000001a0: a30e 2ebd 314c 113d c66c 553d 4661 303d
000001b0: 31b9 7abd f2b0 f1bb 0689 01bb 8f56 08bd
000001c0: 3ff0 d73c 827a 6a3d 90c0 953c 00fa 443b
000001d0: ed02 683d 7063 9abb d90f 4abd b0b3 053c
000001e0: 4816 25bd 15d0 923c 3633 943c 4fdf 95bb
000001f0: 6b21 4a3d 52a4 e1bc e307 083d 1369 863b
00000200: de9e 453d 6be0 c3bc 6836 51bc a4ac 07bd
00000210: 942a 043d a378 d33b 357f 743c d7da 03bd
00000220: 125c 0abd 5f6b 293d 1101 3d3d 51d6 62bd
00000230: 9c02 883c b272 e1bc 6e94 51bd b68a 7bbc
00000240: 56fc 343d 8acb 033d 3f91 823d aecb 683c
00000250: f402 31bd 6a8f b6bc 81da 77bd 2306 4c3b
00000260: 16c8 f5bc 2f39 40bd d07a 62bd e9d2 65bd
00000270: e1b0 1cbc 9c63 b13b 1c62 8dbb 925b 8cbc
00000280: 09ec cb3c 74e2 0abc 21ad 2ebd dd09 79bd
00000290: 6da9 d2bc c400 803d 7b80 6a3d e43a 583d
000002a0: 78d3 58bd ff39 72bd f5b4 8b3b 9fbd ca3c
000002b0: 4639 7cbd a8f4 433c e0c8 36bd 784d 373d
000002c0: 6e36 64bd e175 76bd 0db4 4f3d fa16 7b3d
000002d0: 6ae4 0cbd c400 4bbd eb73 04bd e2a6 55bd
000002e0: e441 783d 5ae0 adbc e6e2 4ebc a5f6 5e3d
000002f0: d79a 953b 92f9 e63b 7f52 0bbd 39e3 25bd
00000300: 9db5 673d 9fde 4bbd 94b9 b9bc b242 463d
00000310: c8e8 683d 6a16 d1bb 1079 5e3c 009a abbb
00000320: 6c1b 76bc a262 a6bc 3d31 ed3c 0006 8e3c
00000330: 17bc debc a25d 74bd d84f 51bd e715 2d3d
00000340: 18e2 0fbd 0928 f63b 6eb1 ad3b b6bd 59bd
00000350: f49f 523b 5837 94bc 96a1 5dbd 5063 e6bc
00000360: c065 533c 0c28 5b3c 7e97 d3bc 6141 253c
00000370: aabc 133d 60ff 25bc 78d5 0cbc 329d 4dbd
00000380: 4f37 9e3c bcc6 a43c 3312 43bd f575 233d
00000390: aeed 583d a0b4 c2bb d51c d1bb 4cab 44bd
000003a0: a7aa 803c 23c9 cdbc c882 b73b beb0 103c
000003b0: 807c bc3a f915 25bd 653d 143c adaa 23bd
000003c0: 2932 60bd 6c54 24bd a69f 1dbd 9905 263c
000003d0: e007 723d c156 debb 0a11 033d 3cc6 81bc
000003e0: c93c cc3c f48b 42bd 6c65 323d 9663 68bd
000003f0: 67f4 423d 581c 5cbd 5fdd 0a3d 958f 7a3d

linear2.bias f4 [3]
0.054250058 -0.022370927 -0.017747333
00000000: 4f35 5e3d 3c43 b7bc db62 91bc
