model/model.pth (torch, 16787 bytes, 4 tensors)

linear1.weight f4 [256, 11]
0.22884437 0.1198125 -0.40674 -0.28852385 -0.07072479 0.39566123 -0.3277168 0.40688092
-0.037292957 -0.28697872 -0.25312155 -0.0236048 -0.08582947 -0.2695569 -0.1132266 0.25552663
0.1305193 -0.11288605 0.27453876 -0.0273907 0.26003388 -0.0879866 -0.25889128 0.4651905
0.1664572 -0.32218298 0.230697 0.28829977 -0.47636116 -0.47675422 0.301049 0.12154606
-0.3075937 0.12727726 -0.122075096 -0.2915838 -0.033051345 -0.21605971 -0.2894013 -0.11589748
0.065543085 0.036817174 -0.16020188 -0.0054677725 0.21186337 0.19757843 0.06662485 0.12275307
-0.31217387 0.027693681 0.15888841 -0.042533062 0.37546033 0.35998315 0.17047141 0.45271066
0.17733404 -0.51691157 0.0137267085 -0.33493283 -0.36184013 0.02157165 -0.048808202 0.29819095
0.3042392 0.29800823 -0.30407906 0.5322109 -0.13047072 -0.27859035 0.029913299 -0.19197538
0.16552833 -0.04147563 0.25641903 -0.11910094 -0.040934965 -0.26248336 -0.11498287 0.46198
0.12766725 0.14432687 -0.32102412 0.13633013 0.17133006 -0.104260296 -0.55583864 -0.0509116
-0.28376532 0.16141108 -0.12183767 0.2697158 0.06465058 -0.07554691 -0.23316768 -0.27567434
-0.21480998 0.06605801 0.21044561 0.1436799 -0.48980707 0.4673851 -0.14797838 0.0346371
0.051278412 0.4253019 0.3525597 0.17909943 0.1751484 -0.24993005 -0.02121891 0.10113944
0.06694948 -0.11805718 -0.33984414 0.325694 -0.31596065 -0.4460748 -0.33345887 0.29602405
-0.010949964 0.29897717 -0.028608153 -0.13848951 -0.055957504 -0.38543227 0.3325267 0.20232806
0.03313861 0.4286597 -0.28040493 -0.13993931 0.18970886 -0.22995287 0.26370952 -0.04481917
-0.2006263 -0.08100628 -0.1465137 -0.10401416 0.16218019 -0.27263892 0.010409188 -0.11817877
-0.015364918 0.42835647 -0.018202277 -0.20644625 -0.15144394 0.047321163 0.27217364 0.43807715
0.347011 0.13425194 0.31895092 0.33356446 0.047563214 0.06119922 0.05174383 -0.34315556
0.04974318 -0.11174307 0.16128217 0.26668411 0.12816103 0.5802664 -0.061308153 -0.2173655
-0.14357358 -0.33885413 0.246801 0.14499302 0.16337356 0.39132187 -0.19285241 -0.09434546
0.2427948 -0.3303416 0.31973606 -0.36111212 0.2263405 -0.21238542 -0.40380627 0.275669
-0.09780044 -0.34735325 0.44613135 0.046013534 -0.070985 -0.25279394 0.06929391 -0.25285316
-0.3652933 0.26857892 -0.30795902 -0.08627919 -0.23538333 0.2670454 0.633686 -0.007992803
-0.0007501459 -0.018577818 0.11817435 -0.087030336 -0.13213219 -0.04444901 -0.1215922 0.059814908
0.10242821 0.26870295 -0.3277106 -0.08894819 0.038611323 0.4253646 -0.047424812 -0.23353374
0.14364718 0.20588903 0.07043791 -0.06616956 -0.046198796 0.09588091 -0.3699912 -0.41364065
0.28219113 0.08636228 -0.26246536 0.18354796 0.22862157 0.24418755 -0.26120064 0.12451472
0.047422044 -0.05518382 -0.3310858 -0.031527523 0.12505725 -0.15795109 -0.07786472 -0.34939578
-0.030713774 0.07080682 -0.435983 0.15182826 0.3414719 0.28223258 0.21615355 -0.44252688
-0.32282883 0.41980845 0.3794112 -0.32361832 -0.269451 0.3349012 0.16066153 -0.30567703
00000000: 2e56 6a3e 4260 f53d 3a40 d0be 66b9 93be
00000010: 29d8 90bd 1c94 ca3e 7fca a7be b252 d03e
00000020: 80c0 18bd e0ee 92be 2699 81be db5e c1bc
00000030: 5cc7 afbd 5d03 8abe 59e3 e7bd 63d4 823e
00000040: daa6 053e cd30 e7bd 5890 8c3e 7662 e0bc
00000050: 2923 853e 5232 b4bd 668d 84be 732d ee3e
00000060: c273 2a3e 2bf5 a4be d63b 6c3e 079c 933e
00000070: 9ce5 f3be 2119 f4be 1823 9a3e 24ed f83d
00000080: ec7c 9dbe f854 023e 8202 fabd 794a 95be
00000090: d960 07bd c23e 5dbe 682c 94be a85b edbd
000000a0: 743b 863d 9bcd 163d f60b 24be 002b b3bb
000000b0: b6f2 583e 0052 4a3e 9c72 883d f665 fb3d
000000c0: 41d5 9fbe dcdd e23c a5b3 223e 2637 2ebd
000000d0: 563c c03e b64f b83e 0f90 2e3e b1c9 e73e
000000e0: 0e97 353e 5154 04bf fde5 603c 517c abbe
000000f0: 1c43 b9be 07b7 b03c 1ceb 47bd 7cac 983e
00000100: 3ec5 9b3e 8994 983e 40b0 9bbe f93e 083f
00000110: 1e9a 05be 65a3 8ebe bc0c f53c 3295 44be
00000120: 4280 293e 5ae2 29bd 5b49 833e 32eb f3bd
00000130: 6cab 27bd 3864 86be 247c ebbd a488 ec3e
00000140: 34bb 023e 6cca 133e 465d a4be 209a 0b3e
00000150: 2671 2f3e 6c86 d5bd 714b 0ebf af88 50bd
00000160: b049 91be f248 253e 0786 f9bd 3018 8a3e
00000170: 8667 843d 57b8 9abd 82c3 6ebe 3025 8dbe
00000180: 26f7 5bbe 6c49 873d 0e7f 573e d320 133e
00000190: fec7 fabe 1a4d ef3e a587 17be a2df 0d3d
000001a0: 5009 523d 2cc1 d93e b482 b43e d765 373e
000001b0: 1a5a 333e aaed 7fbe 48d3 adbc 3222 cf3d
000001c0: cf1c 893d f6c7 f1bd 0d00 aebe 5dc1 a63e
000001d0: 98c5 a1be eb63 e4be 1fbb aabe 7790 973e
000001e0: 7a67 33bc 8913 993e a55b eabc 32d0 0dbe
000001f0: b233 65bd 6157 c5be f140 aa3e 162f 4f3e
00000200: 5abc 073d 4979 db3e 3c91 8fbe 404c 0fbe
00000210: 0a43 423e c478 6bbe ef04 873e 4e94 37bd
00000220: fb70 4dbe 9fe6 a5bd b007 16be 6005 d5bd
00000230: 9012 263e 5497 8bbe 4d8b 2a3c b607 f2bd
00000240: 23bd 7bbc 8a51 db3e f11c 95bc a566 53be
00000250: 1f14 1bbe d6d3 413d 585a 8b3e a64b e03e
00000260: 6dab b13e 5779 093e 894d a33e f6c8 aa3e
00000270: a5d1 423d 09ac 7a3d 57f1 533d 16b2 afbe
00000280: 81bf 4b3d 8dd9 e4bd 2727 253e d28a 883e
00000290: a53c 033e 578c 143f 421e 7bbd 1095 5ebe
000002a0: f404 13be 4a7e adbe 67b9 7c3e 0d79 143e
000002b0: 664b 273e 575b c83e 1a7b 45be 3138 c1bd
000002c0: 339f 783e 8922 a9be 72b4 a33e b0e3 b8be
000002d0: cec5 673e 907b 59be b2bf cebe 7d24 8d3e
000002e0: 994b c8bd 49d8 b1be 546b e43e b078 3c3d
000002f0: 9560 91bd 356e 81be f7e9 8d3d f875 81be
00000300: b907 bbbe 2d83 893e ceac 9dbe 25b3 b0bd
00000310: 5408 71be 2dba 883e 3f39 223f 3ff4 02bc
00000320: 70a5 44ba 8230 98bc 6505 f23d f63c b2bd
00000330: a94d 07be 2a10 36bd 5505 f9bd 7a00 753d
00000340: e2c5 d13d 6f93 893e afc9 a7be 782a b6bd
00000350: e826 1e3d 64c9 d93e 8540 42bd 7823 6fbe
00000360: 3f18 133e 93d4 523e c041 903d e883 87bd
00000370: f33a 3dbd 365d c43d 7d6f bdbe b5c8 d3be
00000380: 5b7b 903e b5de b03d dc61 86be fff3 3b3e
00000390: c61b 6a3e 4d0c 7a3e 17bc 85be 9301 ff3d
000003a0: 9e3d 423d 6e08 62bd 1484 a9be 0123 01bd
000003b0: 020f 003e eebd 21be 8a77 9fbd 01e4 b2be
000003c0: 749b fbbc 2b03 913d 2a39 dfbe de78 1b3e
000003d0: 68d5 ae3e ca80 903e 5b57 5d3e e292 e2be
000003e0: d249 a5be 22f1 d63e 2f42 c23e 4db1 a5be
000003f0: 7bf5 89be 2c78 ab3e 7584 243e b381 9cbe

linear1.bias f4 [256]
-0.1462592 -0.18594065 0.17185348 -0.14335862 -0.07508812 0.027223337 0.028624997 0.36333415
-0.016908592 -0.22537024 0.018213706 -0.06910532 -0.38830376 -0.15224966 0.04849862 -0.07984437
-0.049418386 -0.029890047 0.020291528 -0.3290278 0.014020629 0.023487167 0.002838951 -0.005930543
-0.10961202 0.17322244 -0.036462672 0.009711707 0.028893784 -0.0006750579 0.04874411 -0.022158163
-0.2927726 0.21477251 -0.27134725 0.37432128 0.43240574 0.04896856 -0.3133956 -0.05527958
-0.09243056 -0.09995397 -0.11462237 0.117273174 0.090878226 -0.15128358 0.023451159 -0.22794409
-0.123531185 0.01557596 -0.13588674 0.13622893 0.029350534 0.10039126 -0.2520734 -0.27331343
0.039489925 0.19858128 0.11691368 -0.149725 -0.21128832 -0.21656084 -0.02916962 -0.012606735
-0.093103684 -0.0716669 0.065618046 -0.06306349 -0.1808025 0.2203533 -0.2024273 -0.015794741
-0.34194097 -0.37444717 -0.09723333 -0.09212444 0.12988584 -0.018741842 -0.19511788 0.22674806
0.09544416 -0.23849733 -0.16600762 -0.25925124 -0.2142921 -0.2122486 0.11528467 -0.0985175
-0.08793765 -0.009536403 -0.28446385 -0.012942401 0.046838984 0.36969987 0.12800895 0.1595605
0.27190202 0.009689623 -0.12395988 0.09809702 -0.099403396 -0.091765955 0.2535485 0.1859103
0.07697287 -0.102505326 0.14553428 0.21659878 0.19596674 0.185442 -0.20680627 -0.1766314
-0.26033723 -0.22907719 0.3384776 0.05469172 0.08099493 -0.13802315 -0.07120305 0.0021595866
-0.21567893 -0.10105926 -0.33324775 -0.2351718 -0.22736473 0.10177495 -0.04275716 -0.033127226
-0.08011828 -0.12681524 -0.17886814 0.2798454 0.017558826 -0.04627073 0.07300203 0.20381838
-0.14645143 -0.18625721 0.045677353 -0.11337786 0.026485577 0.247459 -0.14902864 -0.13541946
0.38626745 0.11790956 -0.0048507643 -0.19157371 0.122588925 -0.3916145 0.17351449 0.057580385
-0.08945552 0.055516552 -0.19310856 -0.15972212 -0.08733691 -0.040879946 0.19994901 0.4005572
0.21981174 0.012534073 0.036607534 -0.26042417 -0.21652515 0.23970541 0.24728087 0.39193326
-0.17347434 0.29390162 0.032966327 -0.2635056 0.15225062 -0.09595105 0.24158481 -0.12240613
0.23355673 -0.3209989 -0.06928889 -0.19730666 -0.06506196 0.1343786 -0.102373205 0.23008023
-0.03336542 -0.202955 -0.13811928 -0.2157353 0.26686355 -0.32524744 0.0048548053 -0.016577099
-0.06859551 0.19627333 0.15838583 0.0915602 -0.35175663 -0.012888344 -0.13043909 0.023051921
0.049698323 -0.015630234 0.26622683 -0.037105206 -0.019720506 0.096878454 0.07439382 -0.026850022
-0.12739508 0.42173272 -0.16929466 0.112205446 -0.099852994 -0.15029384 -0.15266158 -0.24641116
-0.05681629 0.08535539 0.09937807 0.01914527 -0.10685302 -0.24400918 0.001861549 0.079794124
-0.24749292 0.34038156 -0.1941837 0.30249327 -0.03809573 -0.14205992 0.12603611 -0.27809867
-0.097549744 -0.10502467 -0.026320701 0.026986996 0.12677132 -0.33756542 -0.07455507 -0.18905666
-0.17498976 0.049673945 0.2805004 -0.010988788 -0.27911365 -0.11975846 0.18516588 0.016133955
-0.21923219 -0.19714572 -0.31245825 -0.012092231 -0.1640387 0.09680569 0.105112694 0.3355427
00000000: f9c4 15be 3a67 3ebe 5cfa 2f3e 9acc 12be
00000010: cdc7 99bd 7a03 df3c f87e ea3c ef06 ba3e
00000020: e383 8abc 75c7 66be e934 953c 1787 8dbd
00000030: c0cf c6be 56e7 1bbe 7da6 463d 7285 a3bd
00000040: ef6a 4abd f9db f4bc 6b3a a63c 5576 a8be
00000050: c8b6 653c 2968 c03c b20d 3a3b 0055 c2bb
00000060: 447c e0bd 3961 313e e259 15bd da1d 1f3c
00000070: a8b2 ec3c 5ef6 30ba e7a7 473d 0985 b5bc
00000080: 4ae6 95be 53ed 5b3e 07ee 8abe 0aa7 bf3e
00000090: 4964 dd3e 4293 483d 6375 a0be d76c 62bd
000000a0: 3c4c bdbd abb4 ccbd 22bf eabd eb2c f03d
000000b0: 5d1e ba3d 15ea 1abe a51c c03c 2d6a 69be
000000c0: ebfd fcbd 5032 7f3c e525 0bbe 997f 0b3e
000000d0: 8870 f03c ef99 cd3d c40f 81be bdef 8bbe
000000e0: 30c0 213d e458 4b3e 7170 ef3d 8351 19be
000000f0: f75b 58be 20c2 5dbe 20f5 eebc 7b8c 4ebc
00000100: 25ad bebd 18c6 92bd c162 863d 6e27 81bd
00000110: 4a24 39be 4ca4 613e 1a49 4fbe f963 81bc
00000120: e312 afbe 8ab7 bfbe 4522 c7bd bdab bcbd
00000130: cb00 053e 7e88 99bc fbcc 47be a530 683e
00000140: 3a78 c33d a538 74be e7fd 29be 94bc 84be
00000150: 636f 5bbe b257 59be 5e1a ec3d 8bc3 c9bd
00000160: a818 b4bd 933e 1cbc 3fa5 91be 5d0c 54bc
00000170: 3cda 3f3d 4d49 bd3e c714 033e d463 233e
00000180: be36 8b3e 39c1 1e3c adde fdbd 17e7 c83d
00000190: 0294 cbbd caef bbbd 1cd1 813e 455f 3e3e
000001a0: f4a3 9d3d 50ee d1bd f006 153e 12cc 5d3e
000001b0: 81ab 483e 82e4 3d3e 06c5 53be ddde 34be
000001c0: ec4a 85be 3693 6abe f04c ad3e 6d04 603d
000001d0: abe0 a53d f155 0dbe e8d2 91bd da87 0d3b
000001e0: f0da 5cbe 28f8 cebd 739f aabe e0d0 70be
000001f0: 4dd2 68be 636f d03d 2222 2fbd 6ab0 07bd
00000200: 0e15 a4bd dbdb 01be 3629 37be e547 8f3e
00000210: 87d7 8f3c 6186 3dbd 1782 953d c4b5 503e
00000220: 5df7 15be 36ba 3ebe 2d18 3b3d a732 e8bd
00000230: 48f8 d83c e465 7d3e f79a 18be 66ab 0abe
00000240: d9c4 c53e 917a f13d 29f3 9ebb e62b 44be
00000250: e70f fb3d b281 c8be c8ad 313e 69d9 6b3d
00000260: 7534 b7bd 5365 633d 40be 45be 328e 23be
00000270: b2dd b2bd bb71 27bd 6fbf 4c3e d515 cd3e
00000280: 5416 613e b65b 4d3c c8f1 153d 5156 85be
00000290: c5b8 5dbe 5675 753e 3237 7d3e 7aab c83e
000002a0: 42a3 31be 467a 963e b307 073d 35ea 86be
000002b0: 96e7 1b3e fc81 c4bd 0262 773e 11b0 fabd
000002c0: 7f29 6f3e f859 a4be 55e7 8dbd c20a 4abe
000002d0: 343f 85bd 8b9a 093e 0ba9 d1bd 279a 6b3e
000002e0: 2eaa 08bd 6fd3 4fbe 246f 0dbe b7e9 5cbe
000002f0: 57a2 883e d586 a6be 0f15 9f3b b2cc 87bc
00000300: ce7b 8cbd e0fb 483e e52f 223e ea83 bb3d
00000310: 7219 b4be a229 53bc d391 05be 62d7 bc3c
00000320: 7890 4b3d fa0a 80bc e24e 883e a1fb 17bd
00000330: e68c a1bc 3668 c63d c95b 983d 94f4 dbbc
00000340: db73 02be 5aed d73e 945b 2dbe f8cb e53d
00000350: ba7f ccbd a1e6 19be 5153 1cbe 3553 7cbe
00000360: 33b8 68bd cfce ae3d bb86 cb3d 8bd6 9c3c
00000370: c2d5 dabd 8bdd 79be 38ff f33a 1a6b a33d
00000380: c96e 7dbe 7e46 ae3e 18d8 46be 66e0 9a3e
00000390: 450a 1cbd 2878 11be 9c0f 013e f362 8ebe
000003a0: 29c8 c7bd 2d17 d7bd 839e d7bc d513 dd3c
000003b0: 57d0 013e 60d5 acbe 54b0 98bd 1298 41be
000003c0: 8430 33be e876 4b3d c09d 8f3e 510a 34bc
000003d0: fce7 8ebe ec43 f5bd 209c 3d3e 5b2b 843c
000003e0: 677e 60be 91e0 49be 87fa 9fbe 7e1e 46bc
000003f0: c3f9 27be 1042 c63d 5345 d73d 41cc ab3e

linear2.weight f4 [3, 256]
-0.22579163 -0.10246599 0.23460382 -0.016766958 -0.17294092 -0.28594187 0.14924198 0.3258845
-0.16873339 -0.29539675 0.37188005 -0.45462492 -0.010745456 -0.21583024 -0.064940706 -0.48705772
-0.22608942 0.12712364 -0.2610285 0.13695718 0.19514094 0.02771952 0.4732124 0.2151961
-0.112544365 -0.106451936 -0.06586677 -0.10112619 0.3026183 -0.20820962 -0.03602567 -0.27048507
-0.2196899 0.17472684 -0.11339542 0.3478944 0.2813598 -0.096482046 -0.2739184 -0.10001364
-0.13985012 0.08022802 -0.4280168 0.36931875 -0.109141044 -0.32685953 -0.21554255 -0.41145146
-0.2835135 0.091089286 -0.3850366 0.26333904 -0.0042664194 -0.1019476 -0.26465145 -0.15273362
-0.010583458 0.18257138 0.35218525 0.2135385 -0.22579372 -0.047880214 -0.33354464 -0.036450025
-0.1448516 -0.32511523 -0.3151141 -0.4119569 0.1584738 0.14984956 -0.2698764 -0.12233995
0.061951037 -0.015040689 -0.16875121 -0.2217199 0.16389549 -0.1515657 0.2755222 0.27484497
-0.0576355 -0.364034 -0.3186354 0.020403545 -0.24364938 -0.17162967 -0.07066679 -0.101257764
-0.04515006 0.14295799 -0.21757632 -0.17148751 -0.46194893 0.24031553 0.012318595 0.12451359
0.13632457 -0.12958233 0.24526627 0.01636058 0.406459 -0.27034977 0.25487348 -0.13018286
-0.12890513 -0.12037356 0.40503946 -0.06489316 0.40587693 -0.011518875 -0.2967679 -0.15395752
0.034282014 -0.19811751 0.26020077 -0.082828134 0.060551386 -0.34827963 -0.2599758 -0.10706441
-0.113759585 0.04644379 0.04459463 -0.37785876 -0.013166226 0.061921485 -0.054281242 -0.10428298
-0.16247682 -0.031352643 -0.27283156 0.12243 0.03487571 -0.061878137 0.18539967 0.2428377
-0.2655005 -0.5229118 0.25978836 -0.07536377 -0.19184029 -0.059462428 -0.3403647 -0.2056556
0.27745584 0.21844706 -0.31840086 -0.37760097 0.0964976 0.038917966 -0.38701525 -0.018392805
0.14085242 0.4131599 0.30875605 -0.26464763 0.0002604773 -0.27387187 0.22893453 0.39903536
0.17692894 0.18821792 0.2257024 0.046369277 -0.43070295 0.05316726 0.11363215 0.3662294
-0.18406333 0.19028305 0.37323913 -0.07287088 0.084730186 -0.21091919 0.3566317 -0.03860559
0.40754843 -0.016348395 -0.013252432 -0.09407732 0.17518604 -0.3173158 0.09035126 0.15504315
0.19901815 -0.14591223 0.31443712 -0.11896319 0.15454175 0.0073129195 0.03409754 -0.083866805
-0.014641107 0.20014775 -0.23007815 -0.039777778 -0.073667906 -0.06591153 -0.22228876 0.14346191
-0.016248655 0.03310502 0.32805964 -0.1052331 -0.38165852 0.06674671 -0.09613414 -0.39676937
-0.15243486 0.28823462 -0.27650514 0.16301934 -0.3976133 -0.10715388 -0.05235782 -0.12622668
0.055140782 -0.1645293 -0.14723177 -0.1447263 -0.059501782 -0.1601334 -0.16023828 0.078678586
-0.18359007 0.18629648 -0.022124827 0.16619797 -0.045221373 -0.3487679 -0.05446668 -0.31407905
-0.10128604 -0.038102202 0.23650938 -0.035355072 0.21955296 0.0047082906 -0.02494099 -0.2902826
-0.2519236 -0.1614335 0.14820807 -0.17006776 -0.056710683 -0.33889994 -0.14296314 -0.30360794
-0.058596008 -0.4220836 0.12985915 0.26562878 -0.2962305 0.12307795 -0.38991636 0.17451514
00000000: ec35 67be b0d9 d1bd fc3b 703e dc5a 89bc
00000010: 6d17 31be f966 92be e4d2 183e 55da a63e
00000020: 72c8 2cbe 3e3e 97be 1067 be3e 99c4 e8be
00000030: b60d 30bc 9a02 5dbe a2ff 84bd a15f f9be
00000040: fc83 67be b32c 023e 87a5 85be 813e 0c3e
00000050: 07d3 473e 0c14 e33c e548 f23e 5e5c 5c3e
00000060: a97d e6bd 7903 dabd 28e5 86bd 3f1b cfbd
00000070: c9f0 9a3e e734 55be a78f 13bd 057d 8abe
00000080: 64f6 60be 98eb 323e dc3b e8bd 371f b23e
00000090: 640e 903e 6198 c5bd 083f 8cbe f4d3 ccbd
000000a0: df34 0fbe 974e a43d 0525 dbbe 5917 bd3e
000000b0: 5785 dfbd 225a a7be 30b7 5cbe c4a9 d2be
000000c0: ae28 91be 058d ba3d 8423 c5be 60d4 863e
000000d0: 52cd 8bbb e7c9 d0bd 6580 87be 3466 1cbe
000000e0: 3d66 2dbc fef3 3a3e a051 b43e d6a9 5a3e
000000f0: 7836 67be 0b1e 44bd 5dc6 aabe 9f4c 15bd
00000100: fa53 14be 8175 a6be a356 a1be 04ec d2be
00000110: f546 223e 2a72 193e 3d2d 8abe 5e8d fabd
00000120: 5fc0 7d3d 396d 76bc 1ecd 2cbe 8b0a 63be
00000130: 38d4 273e 0a34 1bbe 3f11 8d3e 7bb8 8c3e
00000140: 3413 6cbd aa62 babe 2e24 a3be 5625 a73c
00000150: 397f 79be b0bf 2fbe c0b9 90bd 3b60 cfbd
00000160: 45ef 38bd 9463 123e 54cc 5ebe 6c9a 2fbe
00000170: 9284 ecbe 4615 763e efd3 493c fb00 ff3d
00000180: ab98 0b3e 3bb1 04be 1527 7b3e a006 863c
00000190: 651b d03e 496b 8abe c77e 823e a84e 05be
000001a0: b5ff 03be 6a86 f6bd 5561 cf3e b4e6 84bd
000001b0: 1acf cf3e aab9 3cbc f6f1 97be 0aa7 1dbe
000001c0: 4c6b 0c3d 51df 4abe 0939 853e cca1 a9bd
000001d0: bb04 783d b551 b2be 8c1b 85be 9644 dbbd
000001e0: c9fa e8bd d83b 3e3d dca8 363d b476 c1be
000001f0: 28b7 57bc 62a1 7d3d 0256 5ebd 5192 d5bd
00000200: 5360 26be a16b 00bd 94b0 8bbe 94bc fa3d
00000210: d5d9 0e3d ee73 7dbd 69d9 3d3e 72aa 783e
00000220: aeef 87be 8cdd 05bf fb02 853e 5258 9abd
00000230: c871 44be e08e 73bd 4844 aebe 6297 52be
00000240: b10e 8e3e 96b0 5f3e 7005 a3be ea54 c1be
00000250: 89a0 c53d 7268 1f3d dd26 c6be 82ac 96bc
00000260: 9e3b 103e b289 d33e 4615 9e3e e57f 87be
00000270: ac90 8839 ef38 8cbe d06d 6a3e 5d4e cc3e
00000280: dc2c 353e 33bc 403e 881e 673e b6ed 3d3d
00000290: 1985 dcbe eac5 593d f9b7 e83d 6b82 bb3e
000002a0: 197b 3cbe 8fd9 423e 3319 bf3e 543d 95bd
000002b0: 0587 ad3d 33fb 57be 6e98 b63e e520 1ebd
000002c0: 30aa d03e 12ed 85bc bb20 59bc 9cab c0bd
000002d0: f863 333e 3777 a2be 150a b93d a2c3 1e3e
000002e0: 6acb 4b3e 046a 15be e7fd a03e f9a2 f3bd
000002f0: 3140 1e3e 37a1 ef3b dda9 0b3d 5cc2 abbd
00000300: 41e1 6fbc 88f3 4c3e 9b99 6bbe 06ee 22bd
00000310: 33df 96bd a0fc 86bd aa9f 63be aee7 123e
00000320: e61b 85bc 2199 073d 6ff7 a73e 7484 d7bd
00000330: bf68 c3be 80b2 883d fae1 c4bd 5b25 cbbe
00000340: e217 1cbe 7d93 933e 1592 8dbe 8bee 263e
00000350: f893 cbbe 7e73 dbbd 2775 56bd 9141 01be
00000360: 4ddb 613d 5e7a 28be edc3 16be 2233 14be
00000370: 24b8 73bd 03fa 23be 8115 24be 3d22 a13d
00000380: 09ff 3bbe 81c4 3e3e 203f b5bc cd2f 2a3e
00000390: 0c3a 39bd b591 b2be 7418 5fbd f8ce a0be
000003a0: 0e6f cfbd 0e11 1cbd 842f 723e 7bd0 10bd
000003b0: 7ed2 603e 0148 9a3b 0c51 ccbc ec9f 94be
000003c0: 21fc 80be d34e 25be dbc3 173e 3e26 2ebe
000003d0: 7649 68bd 4b84 adbe ee64 12be 8072 9bbe
000003e0: 5e02 70bd 571b d8be ccf9 043e 7f00 883e
000003f0: 86ab 97be 4b10 fc3d 1ea3 c7be 19b4 323e

linear2.bias f4 [3]
0.13247137 -0.11030969 -0.1133117
00000000: 93a6 073e 0cea e1bd f70f e8bd
