model/model.pth (torch, 16787 bytes, 4 tensors)

linear1.weight f4 [256, 11]
000000 22 61 c7 3e a5 cc c0 be 1f 38 9e 3e 85 22 4e 3d
       0.38941294 -0.3765613 0.30902192 0.05032589
000010 06 91 a7 3d c9 99 42 3e 09 38 74 be 46 ef 93 3e
       0.08181958 0.19003977 -0.238495 0.2889349
000020 2b b7 70 be 5d af 0c 3e 00 90 45 3d 1b 38 3d be
       -0.23507373 0.13738771 0.048233032 -0.18478434
000030 79 01 99 3d 3f 0a 7c be 20 4d af bd b9 2a e2 bd
       0.07470984 -0.24613284 -0.08559632 -0.11043305
000040 ca 37 ad 3e b5 2a b1 3e 17 ff 3e 3e 30 cd 87 3e
       0.33831626 0.34602895 0.18651997 0.26523733
000050 f7 ac 62 be 63 e5 73 be 50 c5 e5 3e 56 ff 02 3f
       -0.22136293 -0.23817973 0.448771 0.5117086
000060 57 ab b7 be 8a 80 89 bd 1c 9b 31 3c 08 6e 85 3d
       -0.3587291 -0.0671397 0.010840204 0.065151274
000070 de 83 e1 3d 26 3b 23 be da 19 63 3e 5d 5d 5e 3e
       0.1101148 -0.15940532 0.2217783 0.21715303
000080 8b 6a 6b 3d b6 c7 6a be 0e 46 40 bd 1b 35 07 3f
       0.057474654 -0.22927746 -0.04694181 0.5281541
000090 67 43 3f be 0f 26 3f be 76 55 a5 bb e0 5c 6e 3e
       -0.18678056 -0.18666862 -0.005045588 0.23277617
0000a0 51 67 44 be 60 b7 92 bc 15 43 b7 3d 48 28 b3 3e
       -0.19180037 -0.017909706 0.08948342 0.3499167
0000b0 52 5d 91 be c1 5e b8 3e 72 8e b3 3e 7e 54 31 3e
       -0.2839151 0.36009791 0.35069615 0.17317387
0000c0 1c cf 49 3e 86 ea 6c be c2 7a 43 bd 53 0d 75 3d
       0.19707912 -0.23136339 -0.047724493 0.05982716
0000d0 99 b0 60 3c b4 9a c9 bd 21 a5 97 be 27 f9 aa be
       0.013713979 -0.098439604 -0.2961817 -0.33393213
0000e0 b7 84 86 3e 42 da ff 3e 67 f3 9c be 12 60 54 3e
       0.26273128 0.49971205 -0.3065445 0.20739773
0000f0 90 16 e1 3d 36 13 9f 3d a4 8a f5 3d fa 6e 7e be
       0.109906316 0.07767336 0.11989334 -0.24847022
000100 4f aa 8b bd 33 7b 0f 3d 6a 81 13 3e ce d8 2a 3e
       -0.06819593 0.0350296 0.14404836 0.16684267
000110 ee dd e8 be 3d 20 00 be 77 20 3a 3e 0e 54 1d bd
       -0.4548182 -0.12512298 0.18176447 -0.03841024
000120 a6 03 dc bd 5b db 8e 3e ff ef a4 be a5 eb 63 be
       -0.107428834 0.2790173 -0.32214352 -0.2225786
000130 7c 9b 94 3e 60 22 a5 be 3e 91 9f be 36 d1 a4 be
       0.29024875 -0.3225279 -0.31165498 -0.32190865
000140 77 c5 01 be 45 bb bf 3d 42 62 56 bd b8 12 5a 3d
       -0.12672983 0.09361891 -0.0523398 0.053240508
000150 a7 af 10 3e 3f 5c 25 3e ba d7 b0 bd ce 6d 82 be
       0.14129506 0.1614847 -0.086348966 -0.254744
000160 55 3c 68 3e fa 40 c2 be 8f 95 bc 3e 7b da 33 3e
       0.22679265 -0.37940198 0.36832854 0.17563812
000170 d8 69 8f be d9 53 a6 bc 81 19 5f be df 3a b3 3e
       -0.2801044 -0.020303654 -0.21787073 0.35005853
000180 83 56 f3 bd c1 54 bf 3e 08 af b4 bd be 17 c2 be
       -0.11881735 0.3736935 -0.08822447 -0.3790874
000190 67 13 7b 3e 51 46 b4 3e 08 e6 3d be 0b 86 35 be
       0.2451912 0.35209897 -0.18544781 -0.17726915
0001a0 41 a9 c3 3d ec b2 2f 3e b0 ae e4 bc 09 a0 23 bd
       0.09553767 0.17158097 -0.027915329 -0.039947543
0001b0 99 fc 64 bd 5d 8d 38 be f4 19 08 3e 72 f4 a9 3e
       -0.05590496 -0.18022676 0.1329115 0.3319431
0001c0 0e 6b 01 3f a6 7c d1 bd d4 9f 6f 3e 39 ea 74 3e
       0.5055398 -0.10228853 0.23400813 0.23917474
0001d0 29 91 19 3d c0 5a 8d 3e 7a f7 08 3e 10 75 5a 3d
       0.03749195 0.276083 0.13375655 0.053334296
0001e0 57 78 95 bd 61 29 fe 3b 39 d2 20 3e d4 27 9a 3d
       -0.07298344 0.0077563976 0.15705194 0.07527128
0001f0 e3 59 ac bd 5d 24 a2 3e 42 4e cc 3d 5a 4c 17 3e
       -0.08415582 0.31668368 0.09975864 0.1477522
000200 90 19 b3 3e 2b c4 91 3e 84 c4 cd 3d 72 a8 3c 3d
       0.3498044 0.28469977 0.10047248 0.04605908
000210 50 e9 50 3e be 60 95 be d9 d6 ef 3e 1e e7 be 3c
       0.20401502 -0.2917537 0.46843603 0.023303565
000220 cd cb 61 3e 4c b9 55 3e 1e 81 1b be 22 e7 88 bd
       0.220504 0.20871466 -0.15185973 -0.0668471
000230 50 77 34 be 33 1a 5e be 63 13 f8 3d 17 d1 e9 3e
       -0.17623639 -0.21689682 0.12113073 0.45667335
000240 8b eb e2 bd d4 af e1 3e 8d 5b 14 be 34 f0 84 bc
       -0.110800825 0.4407946 -0.14488049 -0.016227819
000250 37 72 d6 bd 18 62 10 3e c3 26 67 3e 72 4b a5 3d
       -0.104710035 0.1409992 0.2257338 0.08071031
000260 49 12 55 3e 58 c6 aa bd 55 7f ca 3e 78 b6 2b be
       0.20807756 -0.08338612 0.39550272 -0.16768825
000270 2a b9 a2 3e ed 3e 33 3e f2 90 49 be 31 34 96 be
       0.31781894 0.17504473 -0.19684198 -0.29336694
000280 72 d9 14 3e a3 24 10 be a5 b2 e6 3d 69 64 95 3e
       0.14536074 -0.14076476 0.112645425 0.2917817
000290 ef 49 7e be 07 6e 09 3e bf 29 85 be b0 84 86 3d
       -0.24832891 0.13420878 -0.26008412 0.06568277
0002a0 2d 63 99 be 43 96 ac bd 0a 09 7d 3e 1b a4 3b be
       -0.29958478 -0.08427098 0.2471048 -0.1832432
0002b0 f3 16 08 3e 29 67 3e 3e 59 26 c9 be 15 71 b6 bc
       0.13290004 0.1859404 -0.3928707 -0.022270719
0002c0 29 62 e7 3e 37 57 20 bd 44 76 94 be 5a 0e 23 3e
       0.45192078 -0.039145675 -0.2899648 0.15923443
0002d0 3c 33 58 be 08 b8 53 bd 49 21 09 3d cd 8a cd bd
       -0.21113294 -0.051689178 0.03347901 -0.1003624
0002e0 16 fa 93 3e 90 ee 2d be 8c e9 2c 3e f8 f0 89 3e
       0.28901738 -0.16985536 0.16885966 0.26941657
0002f0 e5 c7 00 3f 63 ef c4 bd 6f 51 14 be 8c 17 85 bd
       0.50305015 -0.09615972 -0.1448419 -0.06498632
000300 b5 2c 04 3e f5 2a de bd 6b 52 a4 3e 06 72 60 be
       0.1290768 -0.10848037 0.3209413 -0.21918496
000310 a4 9c 73 3e 0d 73 7a 3e ee 20 b7 3e 7d 99 67 3e
       0.23790222 0.24457951 0.3576731 0.22617145
000320 2f 08 e8 3e f7 8a 8d bd c5 8c 44 bd 5b d9 e9 bd
       0.45318744 -0.06911271 -0.04798581 -0.114184104
000330 45 5a 08 3d f2 6d be 3e 88 ae aa 3e 06 27 cd 3e
       0.033289213 0.37193257 0.33336282 0.40068835
000340 9a bf c9 3e b0 08 a1 3e da 98 bb 3e 80 fe 9c be
       0.39403993 0.3145194 0.36640054 -0.30662918
000350 92 80 a9 3d 0a ab 54 3e 86 bd af bc 24 83 e7 bd
       0.08276476 0.20768371 -0.021452677 -0.1130431
000360 d5 78 c2 bd 6c 7e 31 be 59 6f 0d 3e 8d 03 32 be
       -0.09495703 -0.17333382 0.13812007 -0.17384167
000370 17 37 35 3d a9 44 cd 3e 0c fe 4c be ab 9a 13 3d
       0.04424199 0.40091446 -0.20018786 0.036036175
000380 b3 19 45 3e 74 33 18 bd ab 9c 03 be c3 e4 b0 bd
       0.19248085 -0.037158445 -0.12852733 -0.08637383
000390 db fe 91 be 5d a2 e6 3b 9f 58 5e 3d 27 e7 63 bd
       -0.28514752 0.007038398 0.054283734 -0.055640366
0003a0 78 ef e4 3c 9d a6 91 3c 72 69 c4 bc 4c fb 81 bd
       0.027946219 0.017779643 -0.023976061 -0.06346759
0003b0 c4 de f1 bd 4b 83 84 be 69 5d b0 be 6f 3f b9 be
       -0.11810067 -0.2588142 -0.34446266 -0.36181208
0003c0 a7 cd 62 3d 82 fe e2 3d 90 1e 8b 3d 85 35 ec 3c
       0.055371907 0.110837 0.06792939 0.028834114
0003d0 da 38 90 bd 2b f5 9d 3e d2 47 81 be 1e be 38 be
       -0.070420936 0.3085111 -0.25250107 -0.18041274
0003e0 e3 27 ff 3d 89 54 49 3e ff e1 6f be 78 94 27 be
       0.1245878 0.19661154 -0.23426054 -0.1636523
0003f0 3a 3f f6 3d 95 5c 63 3e 48 56 c8 3e f3 4b e6 be
       0.12023778 0.22203286 0.39128327 -0.4497982

linear1.bias f4 [256]
000000 e7 37 33 3e d5 31 f5 bd d4 3f 45 be fc 9d 2c be
       0.17501794 -0.11972395 -0.1926263 -0.16857141
000010 be 50 a9 3d 74 e6 10 3e e0 a2 59 3e 32 b0 9e 3e
       0.082673535 0.14150411 0.21253538 0.309938
000020 09 74 8a bd dc 1c d2 3e df f1 3f 3e 21 fe 2c be
       -0.06760413 0.41037643 0.1874461 -0.16893817
000030 22 de 37 bd fa 58 88 bd 1f 0b be 3d 21 76 35 3e
       -0.044889577 -0.06657596 0.09279465 0.17720844
000040 90 aa b3 bd 39 24 d8 bd b8 f3 8c be 55 e9 9c bd
       -0.087727666 -0.10553784 -0.27529693 -0.07661692
000050 8c f2 b0 3c a0 23 08 3e b6 58 46 be 4d b2 aa bd
       0.02160003 0.1329484 -0.19369778 -0.083347894
000060 bc 50 4a be bb 66 03 3e 58 3b ac 3e 39 e9 25 bd
       -0.1975736 0.12832157 0.33639026 -0.04050562
000070 3f 08 a7 3d bf 40 1a bc ba 4b 97 be 21 89 41 3e
       0.0815587 -0.009414851 -0.29549962 0.18899967
000080 70 97 57 3e 71 a9 3c 3e 85 f8 9d bd c0 65 b1 bc
       0.21053863 0.18424012 -0.07713417 -0.021654963
000090 fc 5e 8a 3e 3b 2e 7c be f0 6f 98 bc 22 d6 44 3c
       0.27025592 -0.2462701 -0.018608063 0.012013944
0000a0 7e 23 c0 3d 6f 52 4a be f2 19 a0 bd d0 e0 73 3e
       0.093817696 -0.19758008 -0.07817449 0.23816228
0000b0 d4 f1 97 3d 7b be 0b be 9c e8 8f 3d fb 04 2b be
       0.07419172 -0.13646881 0.070267886 -0.16701119
0000c0 07 cc 3f 3e 61 a1 6b bc 40 5d 91 bc ac b6 2e be
       0.18730174 -0.014381737 -0.01774466 -0.17061871
0000d0 ef 68 8e be 61 24 79 3d ee 7a 86 be 4b c5 9f 3d
       -0.27814433 0.06082571 -0.26265663 0.078013025
0000e0 68 36 20 bb d7 94 23 bc 21 73 2e 3d 97 42 e6 3d
       -0.002444649 -0.009984217 0.042590264 0.1124317
0000f0 17 d1 84 3e 7c e6 02 3e 01 c6 87 3d ee 53 f8 bd
       0.25940773 0.12783235 0.06629563 -0.12125383
000100 c7 38 06 be 86 6a f0 bd c4 90 28 3b 44 91 77 3d
       -0.13107596 -0.11739068 0.0025721053 0.06044127
000110 ed 62 10 be 1c 9e 85 3e 16 5c 7e 3d 99 3f d6 3c
       -0.14100237 0.2609719 0.06209954 0.026153373
000120 e5 cf 59 3e 95 b8 53 bb 02 13 4a 3e 8a 21 2d bd
       0.21270712 -0.0032306064 0.19733813 -0.042268313
000130 17 11 0d 3e bc f7 85 bd 8e e5 50 bd 9e bd 70 be
       0.1377605 -0.06541392 -0.05100017 -0.23509833
000140 e0 9a 5c bd 16 f6 0a 3c 8e 62 14 3d af 53 4e 3e
       -0.053858638 0.008481523 0.0362268 0.2014911
000150 63 82 85 3e 83 96 97 3e 7e 0a de 3d 6d 91 ea bd
       0.2607604 0.2960702 0.10841845 -0.11453519
000160 79 bc f3 bd ff f7 9c bc 27 43 5b 3e c9 75 7d 3e
       -0.11901183 -0.019161223 0.21412335 0.24751963
000170 55 14 d5 bd a8 cb 00 3e a5 5f 91 3d 0c 9a 64 3e
       -0.10404269 0.12577689 0.07098321 0.22324389
000180 db ab 07 be e5 9b 77 bc 59 1f 55 3b 24 ad 5c 3e
       -0.13249151 -0.015112852 0.0032519905 0.21550423
000190 02 91 14 3d 30 3f 51 be 47 36 54 3e 11 4b e0 bd
       0.036271103 -0.2043426 0.2072383 -0.10951818
0001a0 1e 79 96 3d ad 20 39 bd bf 52 79 be c9 53 a4 bd
       0.0734732 -0.045197178 -0.24347971 -0.08023793
0001b0 08 a5 7c 3d b8 b5 58 be ea 36 8b bd 2e d2 d6 bd
       0.061680824 -0.2116307 -0.067975834 -0.10489307
0001c0 ed 31 38 3e b8 2d 34 3e 2d 2e 82 3e d8 43 46 be
       0.17987795 0.17595565 0.25425854 -0.19361818
0001d0 f4 ea 9f bd 5d 0a 01 3d e2 70 68 3d 01 5e 12 bc
       -0.078084856 0.031504024 0.05674828 -0.008933545
0001e0 e7 75 72 bd a6 9f 96 be d5 f0 aa bd c2 7e 97 be
       -0.05919447 -0.29418677 -0.08346716 -0.29588896
0001f0 03 37 a3 3e 90 d2 e7 3d a0 49 53 be 64 03 21 be
       0.31877908 0.113194585 -0.20633554 -0.1572395
000200 2f 93 82 3d 1f ed 3b 3e 89 11 3c be 73 45 67 3e
       0.06375729 0.18352173 -0.18366064 0.22585087
000210 1b 95 8a 3e 44 a5 cb 3b a6 ac 49 bd fc 61 d5 ba
       0.27066883 0.0062147696 -0.049236916 -0.0016279812
000220 44 45 85 be b1 8b 82 3e c4 45 80 3e 8f b7 06 3e
       -0.26029408 0.254972 0.25053227 0.1315596
000230 ec 9e be bc ec 7e ed bd 9f ed 13 3d 8b 08 8a 3e
       -0.02326914 -0.11596474 0.036115285 0.26959643
000240 99 58 d0 be 44 cd c7 3d 5d 42 3c bd 01 22 2f 3e
       -0.40692595 0.09755948 -0.045961726 0.17102815
000250 0c c7 37 bd f2 f1 7c 3e e5 90 b9 bd de 22 c3 3c
       -0.04486756 0.2470167 -0.090608396 0.023820337
000260 24 a4 76 be f4 d6 20 bd 04 06 24 be fd 8e da bb
       -0.24086052 -0.039267495 -0.1601792 -0.0066698776
000270 92 8a e7 bd 08 d1 1a bd ca 17 83 3d d3 f0 ba be
       -0.11305727 -0.037797004 0.06401022 -0.3651186
000280 31 a6 80 3e 75 dc 32 be 7b 4e 21 3d b5 0a 54 be
       0.25126794 -0.1746691 0.039381485 -0.2070721
000290 98 b4 37 be 8f 9b fc 3c ee 09 00 bb ea 2d 12 be
       -0.17939985 0.030835895 -0.0019537169 -0.14275327
0002a0 42 f2 3f bd 68 62 1d 3e a8 ba 1f be 8f de 03 3d
       -0.046861894 0.1536957 -0.15598547 0.03219467
0002b0 95 a3 4c be c0 68 a9 be 63 a3 89 bc 4c aa 5b be
       -0.19984277 -0.3308773 -0.016801542 -0.21451682
0002c0 36 77 71 be c8 78 96 bd 10 30 9b be 16 31 8a 3e
       -0.23580632 -0.07347256 -0.30310106 0.26990575
0002d0 0d 37 2b be 64 bc 3a be 54 65 89 3a 48 90 91 3e
       -0.16720219 -0.18235928 0.0010482469 0.2843039
0002e0 9e a2 29 3d fc 33 71 be 26 f3 9d be 53 24 6e 3e
       0.04141485 -0.23554987 -0.3084957 0.23256044
0002f0 a8 76 28 3d 80 55 26 3e 07 d4 b9 bd 47 8b 0f 3e
       0.041128784 0.16243553 -0.09073644 0.14017974
000300 4a 84 0e bd f4 41 94 3e bd 4c 82 3e d5 98 ba bd
       -0.03479413 0.28956568 0.25449172 -0.09111182
000310 42 71 c4 bd 51 19 43 3b 44 b8 35 3d 7c a7 85 3d
       -0.09591915 0.0029769728 0.044365183 0.06526086
000320 0f 01 01 3d 1e 67 16 be 90 0a d6 bd 3f 2e 03 bd
       0.03149515 -0.14687774 -0.104512334 -0.032026526
000330 3f 6f ef bd 99 ab 96 bd 09 8f 26 3e 5b 3b cc bd
       -0.116911404 -0.073569484 0.16265501 -0.09972259
000340 d5 1b 22 be 40 0d 72 bd b8 39 1d 3b 59 9b e7 3d
       -0.1583093 -0.059094667 0.0023990702 0.11308927
000350 d5 cc 51 be 9c 5a 5c bd c1 fe 3a be 26 e2 07 be
       -0.20488293 -0.05379735 -0.18261243 -0.13269863
000360 0e 11 09 3e f1 35 01 be d5 c1 c3 bd cf 2c 39 be
       0.13385412 -0.12618233 -0.09558455 -0.180835
000370 be d2 dc 3d 2f ee 96 bd a2 ad 90 3e 10 e4 37 bd
       0.107823834 -0.07369649 0.2825747 -0.04489523
000380 8a 10 78 3e ff df 92 3e 72 e8 ba bd 70 55 a1 be
       0.24225059 0.2868652 -0.09126367 -0.31510496
000390 59 47 f0 3d c9 b2 ce bd 2d bc 2f 3e df 60 7c bd
       0.117323585 -0.10092694 0.17161627 -0.06161582
0003a0 bf aa 8c be 27 0b 50 bd 17 26 06 3e 32 14 13 bc
       -0.2747402 -0.050791886 0.13100468 -0.008976983
0003b0 c3 50 44 3e e0 fd 4c 3e 40 1b 8b 3d 07 02 00 be
       0.19171433 0.2001872 0.06792307 -0.12500773
0003c0 77 95 ff 3d b3 c2 9b 3d 9b 5f 2c 3e ed 13 2e 3e
       0.1247968 0.07605495 0.16833346 0.16999789
0003d0 1a 33 a9 bd 23 a2 81 3e fd e7 c3 bd 3c 43 64 3e
       -0.082617 0.25319013 -0.09565733 0.22291273
0003e0 bb fb 94 bd 67 c7 3d be 13 4c 84 bd 2c 29 a1 bd
       -0.07274576 -0.18533097 -0.064598225 -0.07869181
0003f0 5b 29 83 3d a4 6a 92 bd 9b c6 c6 bd 18 df a9 be
       0.06404372 -0.07149246 -0.0970585 -0.3317802

linear2.weight f4 [3, 256]
000000 8d 11 b0 bd 53 ee 8b be 34 e4 eb bd ed fb 25 3e
       -0.085970975 -0.27330264 -0.11518136 0.16209383
000010 fc 2f 2e 3e be 13 89 3d 4f 65 2f bd f7 fe 06 3e
       0.17010492 0.06693219 -0.042821225 0.13183199
000020 82 c7 7f 3d c7 67 29 3e 68 7c dc bc 9f 75 bd bd
       0.062446125 0.16543494 -0.02691479 -0.0925095
000030 10 0d 09 be 15 21 6f be 35 be 22 be 30 4e 3f bd
       -0.13383889 -0.23352464 -0.1589287 -0.046705425
000040 e1 73 19 be 31 24 ad bd f4 1b 8f be 23 e5 aa bd
       -0.1498561 -0.084541686 -0.27951014 -0.083444856
000050 1b 6c ee bd 4b 05 08 be 21 81 b1 ba 44 a7 e0 bd
       -0.11641713 -0.13283269 -0.0013542512 -0.109694034
000060 80 02 f0 bd 74 23 f1 bc d5 f0 1e 3e 29 4c c1 be
       -0.11719227 -0.02943585 0.15521558 -0.37753418
000070 e5 38 a3 bd e2 bf c8 3d c6 bd ff bd 89 2a e7 3d
       -0.07969836 0.09802224 -0.12487368 0.1128741
000080 63 71 22 bd 2f f9 80 ba 81 00 09 3e 36 5a 98 be
       -0.039658915 -0.0009839887 0.13379098 -0.29756325
000090 54 2b cd 3d 91 c1 2b be 48 12 20 3d 06 c1 5d be
       0.1001803 -0.16773058 0.039079934 -0.21655664
0000a0 93 64 e3 bd ee f3 a2 be c7 04 a6 bd 9e 84 5d bd
       -0.111031674 -0.3182673 -0.0810638 -0.05408155
0000b0 11 ad d1 bd 48 7a 3e 3e 81 0f 1c 3e 7c 0b ca bd
       -0.10238088 0.18601334 0.1524029 -0.09865472
0000c0 c3 31 2b 3c 0e 85 15 bd 9d 9b 28 bd d8 5d 5f 3e
       0.010448876 -0.036503844 -0.04116403 0.21813142
0000d0 31 89 02 be 88 32 cf 3d 61 bc 98 bd 22 51 45 3e
       -0.12747647 0.1011706 -0.074578054 0.19269231
0000e0 59 7f 31 bd 05 fd 0b be ab c6 4b be f1 2a 9c bd
       -0.04333434 -0.13670738 -0.19900005 -0.07625378
0000f0 d2 16 5d 3d 6f da 0a be da 1f 57 3e 1e 98 2c 3e
       0.05397684 -0.13559888 0.21008244 0.16854903
000100 a6 01 74 3d a8 4f 54 be 2a ab bb bd 41 32 ce bd
       0.059571885 -0.20733511 -0.09163506 -0.10068179
000110 b6 7a 44 be fd 03 57 bd 85 ba b5 bd f1 0f a2 bd
       -0.19187436 -0.052494038 -0.088734664 -0.07913197
000120 14 a2 83 bd a1 3b df 3c 0d 4c fb bd 50 88 3f be
       -0.06427398 0.027250113 -0.12270365 -0.18704343
000130 4b 43 40 3e 0a 23 b6 bd 23 e7 7d 3d 44 fd 27 3d
       0.1877567 -0.08893402 0.061988007 0.041013017
000140 8f 2b 89 bd 64 a4 c9 bb 7b 2a 2e be 8e 3d 18 3e
       -0.06697761 -0.00615363 -0.17008393 0.14867231
000150 ed 23 10 bd 05 61 2c bd 05 fb e4 3c 46 62 67 ba
       -0.03519051 -0.042084713 0.027951727 -0.00088265946
000160 36 90 ab 3d 3a b0 04 be 14 88 92 bd 01 19 9e 3d
       0.083771154 -0.1295785 -0.07154861 0.07719613
000170 63 16 84 bd 02 6a f2 3d a5 a3 dd bd fc 5c fd 3c
       -0.064495824 0.11836626 -0.10822228 0.030928127
000180 cc 00 20 be 94 26 de bd ab 09 6a 3d 31 da c8 bd
       -0.15625304 -0.10847202 0.057138126 -0.09807242
000190 58 c3 c1 3d 15 c3 51 bd bc 50 5a 3d dd a9 d6 be
       0.09461087 -0.051211435 0.05329965 -0.4192647
0001a0 c0 fd b6 bd b2 0a 75 3e 0f 5b 86 be 79 d9 6c be
       -0.08935118 0.23929861 -0.26241347 -0.23129834
0001b0 06 2d 4d be 1e 87 7d be db ce a9 3c 41 17 2d bd
       -0.20036706 -0.24758574 0.02072852 -0.042258505
0001c0 09 cb 14 3d 93 18 00 bc e7 c9 85 bc 17 bb 86 be
       0.036326442 -0.007818359 -0.016331626 -0.26314613
0001d0 84 0e 69 bd e2 38 39 bd 54 41 ef 3c 98 42 49 3d
       -0.05689861 -0.045220263 0.029205956 0.049135774
0001e0 54 0e 91 be 17 a5 9f 3b cd e9 1e 3e 10 bf f4 bc
       -0.28331244 0.004871975 0.15518875 -0.029876262
0001f0 e6 ce 18 3c 64 82 f5 bd 40 76 43 be e9 78 43 3d
       0.009326672 -0.11987761 -0.19088078 0.04772273
000200 03 a6 18 be 3a 1d fd 3d 45 00 22 bd b4 d2 0a 3d
       -0.14907078 0.1235909 -0.03955104 0.03389235
000210 98 c8 d1 3d 3c cb 5b be d0 3b 49 3e 0f 90 43 be
       0.10243338 -0.21464247 0.19651723 -0.19097923
000220 bb 43 08 3d 73 98 0f bd 3c 56 34 bd a5 5d 94 bb
       0.033267718 -0.035057496 -0.044027552 -0.004527765
000230 6a a2 a8 bd a3 9c 8e 3d 2a ee 4d 3d 89 67 17 3e
       -0.08234103 0.0696347 0.05027596 0.1478559
000240 aa 69 f4 bc e7 c7 da 3d 6c e9 bc 3d 46 d0 1c bd
       -0.02983554 0.106826596 0.09224209 -0.038284563
000250 14 4b ac bd 4a 96 6b 3d 07 fd fe bd e2 87 d0 bd
       -0.084127575 0.057516374 -0.12450605 -0.101821676
000260 16 52 46 be 96 ff 2c be b5 ad 0b bd fc a2 7d be
       -0.19367251 -0.16894373 -0.034101207 -0.24769205
000270 f7 2e c5 bc 03 8c 1b be 79 d8 ac bd bc f4 63 bb
       -0.024070246 -0.15190129 -0.084397264 -0.0034783324
000280 ce 74 5a bd 09 8d 1c be 64 63 05 be 6c ef 6d 3e
       -0.05333405 -0.15288176 -0.13026196 0.23235863
000290 c6 5e 87 3d cb ba 45 be e2 b0 4d 3c 5a c5 a9 be
       0.066098735 -0.19309537 0.012554379 -0.3315838
0002a0 28 d0 b8 3d 2e 13 ce 3c 33 89 17 be 7d 34 92 bd
       0.09024078 0.02515563 -0.14798431 -0.071389176
0002b0 ce 09 05 be 5a 2b ef bd ec d0 f6 bd f4 7d 23 bd
       -0.12992021 -0.116781905 -0.120515674 -0.03991504
0002c0 6e 0a 0e be 6e d7 d2 bc e9 02 2b be 67 62 96 3d
       -0.13871166 -0.02573749 -0.16700329 0.073429875
0002d0 b7 87 17 3e 92 9b 8c be e4 3a 88 bd a5 90 a7 3d
       0.14797865 -0.2746244 -0.066518575 0.08181886
0002e0 52 8c 18 bd 6c 0d 6b be b2 9e c0 bc 78 7f 38 3c
       -0.037243195 -0.22954339 -0.023513172 0.01126086
0002f0 7c 8a af bd 53 7a e1 3d fa 5e c4 bd e4 f7 c5 bd
       -0.08571336 0.110096596 -0.09588428 -0.09666422
000300 f2 6f d3 bd 60 81 da 3d 6a 8e 67 bd 07 19 ef bd
       -0.10324086 0.106692076 -0.0565323 -0.116746955
000310 8b 74 b9 3c 67 7d 2e be cc 75 fe bd e0 d7 71 3c
       0.02263858 -0.17040025 -0.12424812 0.014760941
000320 5b c6 f3 bc 8e f4 26 3d c8 58 46 be a5 b6 c6 bd
       -0.02975767 0.04076057 -0.19369805 -0.097028054
000330 3d 09 37 be 07 b7 01 3e ce ca c1 3d ff 8c 8f bd
       -0.17874618 0.12667476 0.0946251 -0.07009315
000340 ee 28 31 3d 38 e2 92 be b0 91 c9 bd df f3 cb bd
       0.043251924 -0.28688216 -0.09842241 -0.09958624
000350 5c 70 80 ba 0a c9 84 be 73 1a e5 3d be 2d 83 bc
       -0.0009799111 -0.2593463 0.111866854 -0.016013023
000360 60 cb 65 bc ad 71 a3 3d 6b b5 88 be 1d 89 6d bd
       -0.014025539 0.07980666 -0.2670091 -0.05799209
000370 f6 b4 16 bd ca 1b c4 3c fd 21 10 3e d5 c0 dc bd
       -0.03679367 0.023939032 0.14075466 -0.10778967
000380 c6 e3 28 3d 85 72 6d 3c a8 89 3a be 8a 7a c9 3d
       0.041232847 0.014492636 -0.18216574 0.098378256
000390 31 c3 22 be 39 0b 2a be ea 37 4c be 53 60 fc 3d
       -0.15894772 -0.16605844 -0.19943205 0.1232306
0003a0 0f ee 1b bd 22 93 01 3e 5f 36 77 bd b6 c6 0d 3e
       -0.038068827 0.12653783 -0.060354587 0.13845333
0003b0 a9 a4 ae bc f1 40 e1 bd bb a1 a6 3d 8d 1c 69 bb
       -0.02131875 -0.10998715 0.081363164 -0.0035569996
0003c0 f8 e7 d0 bd a6 d8 2c 3c 06 56 33 3e 71 9b 2e bd
       -0.102004945 0.0105497 0.17513284 -0.04262871
0003d0 be 8b 9d 3b f1 25 c7 3d 8a f9 0e 3d 3c 8c 0a be
       0.0048079183 0.097240336 0.034905948 -0.13530058
0003e0 83 ef e0 bd 78 30 b7 3d 11 b8 9e be ed ac 10 3e
       -0.10983183 0.089447916 -0.30999807 0.14128466
0003f0 90 60 ee bd 5f b9 58 be 16 b3 7b be cd c2 3e 3c
       -0.116395116 -0.21164463 -0.24580035 0.011643124

linear2.bias f4 [3]
000000 da eb a9 3d db 39 e7 bd d8 0c d8 bc
       0.08296938 -0.11290332 -0.026373312
