model/model.pth (torch, 16787 bytes, 4 tensors)

linear1.weight f4 [256, 11]
00000000: 1386 633e 751a e23d 9d67 b6be 54cc c3be
00000010: b9b9 8cbd 2dfc d73e cdc4 dfbe 1fa0 da3e
00000020: 9fd2 49be 999d 99be f199 9fbe 77c4 263c
00000030: 45fa 3dbd 60c7 1cbe b0da 03be 8043 943e
00000040: 5ffa 333e f4ef 05be 7a7e 983e b130 aabd
00000050: da57 8d3e 87ea 11be 4e8f 82be 962d ba3e
00000060: 957c 233e e4c9 01bf f442 823e b5bf aa3e
00000070: aa3c 0dbf 32ec 0fbf e63f a43e 2843 303e
00000080: 1471 efbe d5fb ca3d 8202 fabd 794a 95be
00000090: 19bd 7abd c23e 5dbe 682c 94be a85b edbd
000000a0: a91a 193d 9bcd 163d f60b 24be 002b b3bb
000000b0: 1f1e 153e 2089 293e df61 ac3d d1ab 6b3d
000000c0: d60c 7ebe 29d5 54bb 0e47 893d 077f 493d
000000d0: 69b7 a93e 41dd e53e 8630 7b3e 301b c23e
000000e0: 1245 013d 2959 00bf 3bb4 8b3c 6699 9dbe
000000f0: 962e dfbe d8c3 bcbb 232d 30bd a916 a63e
00000100: c726 b23e 2bc4 a03e 25b6 66be 4396 043f
00000110: fca7 3ebe 06ce 95be cec6 253d d909 7ebe
00000120: eea4 4b3e 3409 1cbe 55a0 893e 30ef 85be
00000130: f895 2cbd 0011 75be 45dc 09be 54dc fd3e
00000140: 2734 103e 9c14 2f3e 0948 d9be e23b 623e
00000150: d83a 1b3e 5ad8 d6bd b7ca 41bf 78fe bbbd
00000160: 06c3 7dbe 148c b43d 472a 33bd 8403 a63e
00000170: 4379 353e c097 22be a660 91be f010 a0be
00000180: ab77 36be 72bd 043e f166 983e 4000 243e
00000190: 76f4 e5be 7d45 d93e 82e4 02be 443e de3c
000001a0: de5e b0bd af19 e63e 40cf c83e c5cb b7bc
000001b0: 3bc5 863e fe6b 90be 7901 0dbd d4df d83c
000001c0: de00 923c f09d 9abd 811f ddbe b42b ce3e
000001d0: 79b7 debe 1f31 f4be de98 8ebe c711 b53e
000001e0: 737b 1abd 7ac5 983e 0b3f 82bd 973a 2abe
000001f0: caa7 d9bc c3f1 c9be d0c4 b13e 5589 6e3e
00000200: 7b19 8d3d d607 e23e f74f d0be e2a3 49be
00000210: 335e 283e c478 6bbe d99b 873e c0a2 8ebc
00000220: 4fbb 50be c48c 38be d54b 00be 6005 d5bd
00000230: c70c 223e a4b8 9ebe ac58 593c 0ae0 d1bd
00000240: bd65 c9bc 09e3 d03e 4147 37bd 33b6 44be
00000250: bcde 3fbe 167c fb3a 29e0 b63e fe65 c63e
00000260: 7adb e53e 1c92 6e3e d573 703e 3f5e 873e
00000270: 0d16 323d 4183 b03c be9e d3bc 35d7 d1be
00000280: 5a52 4d3d ed21 25bd 5896 d43d e05b b43e
00000290: d2d1 ab3d 1877 143f 5d4b 83bd 0460 70be
000002a0: 433a e4bd f7b9 b9be 65a0 8c3e 977f 413e
000002b0: c32c 383e ef09 d23e 97c8 93be 0158 1bbe
000002c0: 435d 803e 3d9c 97be 8742 9f3e 11cc ebbe
000002d0: c611 7c3e bca5 68be 2ff7 c1be d533 9b3e
000002e0: e0e7 1fbe f40d 9ebe eced 003f d387 97bc
000002f0: 0537 2cbe 87e2 8fbe 3b4d c53d cd20 babe
00000300: 5b41 ccbe 6541 ce3e 87a8 bebe 9f9d 10bd
00000310: 2b55 a1be 59a6 ab3e c56b 223f 4ca9 063c
00000320: 82a3 603d 285a 4d3d f253 193e 3eeb bdbd
00000330: 98a4 45be bff7 9dbd c9ff 5cbe b4b5 fc3d
00000340: a98a 383e c7f0 793e 6ac2 8fbe a298 89bd
00000350: e0b2 6d3d ac9a f83e 9cfc 2fbe 5f4b 61be
00000360: d242 0e3d a033 5b3e 3507 6d3d f815 f5bd
00000370: 9831 3e3a ed92 e93d 3b9f bcbe 4240 f5be
00000380: aa5e 9f3e 3d77 573e 5368 a9be 620c ba3d
00000390: d29c 853e 3387 5c3e 0076 acbe f292 583d
000003a0: 85b7 d23c cbd0 b0bd 1484 a9be 7a51 f8bd
000003b0: 2ed3 cb3d a6a8 2dbe 7b08 c6bd ea47 b5be
000003c0: 8a2a 31bd 12df e23d b9b0 fabe d5ef 013e
000003d0: 5c77 a23e 4482 8e3e 771e 813e e932 0cbf
000003e0: c99d d5be 7e17 f23e cba9 bc3e df74 c4be
000003f0: 3c85 cfbe 2070 883e 1b6f 113e ddfe 95be
0.22219114 0.110402025 -0.35625926 -0.38241827 -0.06871361 0.42184582 -0.43704835 0.42700288
-0.19709252 -0.3000305 -0.31172135 0.010178677 -0.046381254 -0.1531043 -0.12876391 0.28957748
0.17575978 -0.13079816 0.29783994 -0.083100684 0.27606088 -0.14249621 -0.25499958 0.36362904
0.15965493 -0.50698686 0.25441706 0.33349386 -0.5517069 -0.5621978 0.3208 0.17213118
-0.4676596 0.099113144 -0.122075096 -0.2915838 -0.061215494 -0.21605971 -0.2894013 -0.11589748
0.03737894 0.036817174 -0.16020188 -0.0054677725 0.14562272 0.16556215 0.08417105 0.057536904
-0.24809584 -0.0032475686 0.06703006 0.04919341 0.33147743 0.44895366 0.24530229 0.37911367
0.03156001 -0.5013605 0.017053714 -0.30781096 -0.4359023 -0.005760651 -0.043011796 0.32439163
0.3479521 0.31399664 -0.2253042 0.5179178 -0.18618768 -0.29258746 0.040472798 -0.24808444
0.19887134 -0.15237886 0.26880136 -0.26159048 -0.04213521 -0.23932266 -0.13462932 0.4958216
0.14082395 0.17097706 -0.4243777 0.22093156 0.15159166 -0.104904845 -0.75699943 -0.091793954
-0.24781427 0.0881578 -0.04374149 0.32424557 0.17722039 -0.158782 -0.2839405 -0.31262922
-0.17819087 0.12962893 0.29766038 0.1601572 -0.4491307 0.42435828 -0.12782481 0.0271293
-0.086118445 0.4494147 0.3922062 -0.022436032 0.2632235 -0.28207392 -0.034425233 0.026473917
0.01782268 -0.075496554 -0.43188098 0.40267718 -0.43499354 -0.47693726 -0.27851003 0.35365126
-0.037715387 0.29838163 -0.06359681 -0.16623913 -0.026569266 -0.39442262 0.3472047 0.23294576
0.06889626 0.44146603 -0.40686008 -0.19691423 0.16442184 -0.22995287 0.2648609 -0.01741159
-0.20383953 -0.18022448 -0.12528928 -0.10401416 0.15825187 -0.31000245 0.01326577 -0.1024781
-0.024584645 0.40798214 -0.044745687 -0.19210128 -0.1873731 0.0019186761 0.35717896 0.3874969
0.4489401 0.23297924 0.23481686 0.26439092 0.04347806 0.021546962 -0.02583253 -0.40984502
0.050127365 -0.040315557 0.10380238 0.35226345 0.083896294 0.5799422 -0.06410859 -0.23474127
-0.11143925 -0.36274692 0.2746612 0.18896328 0.17985825 0.41023204 -0.28863975 -0.1517029
0.25071153 -0.29611388 0.31105444 -0.46054128 0.24616155 -0.22719473 -0.378839 0.30312982
-0.15615797 -0.3087002 0.5036304 -0.018497383 -0.16817863 -0.28102514 0.09633871 -0.3635315
-0.39893612 0.40284267 -0.3723795 -0.03530657 -0.3151029 0.3352535 0.63445693 0.008219074
0.054843433 0.050134808 0.14973429 -0.092733845 -0.19301069 -0.077132694 -0.2158195 0.123393446
0.18021645 0.24408256 -0.28078014 -0.067185655 0.058031917 0.48555505 -0.17186207 -0.22001408
0.034731694 0.21406412 0.0578682 -0.11967081 0.0007255315 0.11404977 -0.36840233 -0.47900587
0.3112691 0.2104158 -0.33087406 0.09084393 0.26096207 0.2153595 -0.33683777 0.052874513
0.025722275 -0.08633574 -0.3310858 -0.121249154 0.09952389 -0.16958866 -0.09669586 -0.3540643
-0.04325346 0.110777035 -0.48962954 0.12689145 0.3173169 0.2783376 0.25218555 -0.5476518
-0.41721943 0.47283548 0.36848292 -0.38370416 -0.40531337 0.26648045 0.1420254 -0.29296008

linear1.bias f4 [256]
00000000: 908f 3ebe a200 3fbe f0a0 353e a7a3 2fbe
00000010: 87e5 47be 4c3d 18bc c4d9 123d f9e7 dc3e
00000020: 919d 94bc e607 99be 53d6 563d cff4 3cbd
00000030: 8ed2 c8be 2ca6 6ebe 4af2 a2bd 7459 73bd
00000040: f56e e8bd c577 9d3d 2695 a83c 7d04 90be
00000050: 10bf 2d3d 72e7 03bd 40be 6e3b c36a 613d
00000060: 05d4 d2bd 20c3 3a3e efaf 1dbe d5c5 dfbd
00000070: 7bc8 d1ba 83eb 813d 48bd 0fbd c638 083c
00000080: 3aa8 ccbe 7433 793e 40ff bdbe c26d fe3e
00000090: 6feb 0e3f b260 a0bd 0aa5 aabe 98fb 9dbd
000000a0: fdf0 fabd 75ba 0bbe c205 b4bd 79e2 093e
000000b0: 3b90 dc3d f5b3 51be a4e4 d3bc ebd6 82be
000000c0: c932 06be 3c8e c93b a1de 13be 53b3 183e
000000d0: aa6b 703d d1d0 18bc b171 95be 37d7 d5be
000000e0: ad5f 98bc a68b a23e 23d0 ca3d 8371 febd
000000f0: 2304 8ebe 960d 72be 99f0 9cbd 6122 06be
00000100: e65b 0dbe 1a1c fabd 0681 903d e9ee b2bd
00000110: 5821 1abe fe9c 863e 045b 6abe 4b71 aebd
00000120: 7333 bcbe 12a5 d1be 6b3b 1ebe 0b50 0bbe
00000130: c109 513e 4f37 0dbe 6720 3abe 6fe0 863e
00000140: 553f 93bd 61ec 6ebe 1fb1 3dbe e2f6 94be
00000150: 77ab 82be d596 40be c745 e2bc ac74 1fbe
00000160: a318 d9bd 675b f3bc 30ce b2be aee0 2e3b
00000170: 4419 5d3d ea16 ea3e 10d5 513d 736e 1b3e
00000180: 27fe 743e d76e d0bd c6e8 e8bd f656 833d
00000190: d927 c3bd 80bb b6bd 5024 7a3e d30e ae3d
000001a0: f7b2 243d 8453 4fbe b8fc 373e fe28 4f3e
000001b0: b707 6e3e 7e18 493e 38f0 83be b6cb 8abe
000001c0: b9b9 84be 7df9 5ebe 480d 1f3f 4298 d7bc
000001d0: 1885 e83d 0691 25be e2a1 7ebd 4f16 47be
000001e0: 58f5 93be 28f8 cebd 0d1f adbe 6afd 55be
000001f0: 4dd2 68be e6f7 db3d 0d51 4dbe 5e48 363c
00000200: 6176 4ebe 0c84 33be 0898 8bbe dfc5 d03e
00000210: b10f 45bd ed68 c9bd c9eb 563e 3a95 4d3e
00000220: 7cd2 00be 09fc 4fbe 5b3e f33d a732 e8bd
00000230: bce4 9dbd 8882 b13d 77ab 39be a209 33be
00000240: 2370 d83e d217 b93d 1dbe a33c 7ec2 86be
00000250: 85a3 cc3d b281 c8be f47c 2e3e 4573 513d
00000260: 9f50 6fbd 5bbd 0a3e ce85 43be e039 32be
00000270: 2cbd 7ebd 2b7b ceba 9256 9a3e 4552 173f
00000280: 51a7 653e d299 063d a67b 553d 1689 8bbe
00000290: 2c8f 6dbe d55a 5b3e c827 863e c633 dd3e
000002a0: 5078 4abe c518 843e e187 ca3d ab0e 88be
000002b0: d625 243e d07e bdbd e8da 763e 2bc8 70be
000002c0: a19e 743e f859 a4be 14dc 52bb b4d9 3abe
000002d0: 9376 1dbd 24cd c23d 8caa e4bd 8789 6b3e
000002e0: 88a1 c33b ea2a 35be 0969 c1bd 193b 44be
000002f0: 0e7f 8c3e 34eb aebe a065 af3d 3ef9 48be
00000300: ce7b 8cbd dee3 353e 6b5d fd3d c3ee 49bd
00000310: 7219 b4be a16d 02be 206c a8bd 696e 313d
00000320: d2b7 b0bd 9cd8 89bd 1f63 ae3e 1391 2fbe
00000330: 35eb 93bd c1b8 f53d 15c7 0fbd 7cdd 44bd
00000340: a037 f1bd 9f19 eb3e eee8 56be b0ff 033e
00000350: 408f f0bd b3de 5ebe c122 99be ac7d 83be
00000360: b9ef b6bd 8808 a93d 36df 513c 8e5d 69bc
00000370: 6295 1dbd 495e b8be d074 75bd 8db3 193c
00000380: c658 a5be b4fb a53e 18d8 46be d1b4 ba3e
00000390: a95c fcbd 7570 15be 8c19 d13d 13d7 8cbe
000003a0: 49e4 b9bd 2817 fcbd cdf6 833c 070d f6bd
000003b0: 7b4a 433e 5681 b7be 06fc 2bbe 5e1d 5bbe
000003c0: a4a1 55be 856d d1bc b90a c73e 1f31 74bd
000003d0: 66ab acbe 5971 b6bd 17d7 73bd 6caa c43c
000003e0: a80f 2bbe b885 5abe f7f0 a6be 32a4 263d
000003f0: 551d 3bbe 25ce e63d 965b 663d 4090 123f
-0.18609452 -0.18652585 0.17737174 -0.17152272 -0.19521151 -0.009291958 0.03585221 0.4314573
-0.01814154 -0.2988884 0.05245049 -0.046131905 -0.3922314 -0.23305577 -0.07956369 -0.05941148
-0.113492884 0.0768886 0.020578932 -0.28128424 0.04241854 -0.032203145 0.0036429316 0.055033457
-0.10294346 0.18238497 -0.15399145 -0.10926405 -0.0016005182 0.063437484 -0.035092622 0.008314317
-0.39972097 0.24336034 -0.37108803 0.49693114 0.55827993 -0.07830943 -0.3332904 -0.07714003
-0.12252996 -0.13645346 -0.08790161 0.13465299 0.10769697 -0.20478804 -0.02586586 -0.25554594
-0.1310531 0.006150989 -0.14440395 0.14912157 0.058696426 -0.009327129 -0.29188302 -0.41765758
-0.01860031 0.31747168 0.0990298 -0.124239944 -0.2773753 -0.23637995 -0.07663078 -0.13099052
-0.13804588 -0.12212391 0.07055859 -0.08736975 -0.15051782 0.2629165 -0.22886282 -0.08517703
-0.36758003 -0.4094625 -0.15452354 -0.13604753 0.20413877 -0.1379063 -0.18176423 0.26343104
-0.07189814 -0.23332359 -0.18524598 -0.29094607 -0.25521442 -0.18807538 -0.027621163 -0.1557185
-0.10600402 -0.02970667 -0.34922934 0.0026684212 0.053979173 0.45720607 0.051228583 0.15178852
0.23925076 -0.10177391 -0.11372523 0.06413071 -0.09529085 -0.089224815 0.24427915 0.08498921
0.040209737 -0.20246702 0.17967498 0.20230481 0.2324513 0.1963825 -0.2576921 -0.27108544
-0.25922945 -0.2177486 0.6212964 -0.02631772 0.113535106 -0.16168603 -0.062166102 -0.19442104
-0.2889812 -0.10105926 -0.33812752 -0.20897451 -0.22736473 0.10740642 -0.2005045 0.011125652
-0.20162345 -0.1753084 -0.27264428 0.40775964 -0.048110668 -0.09834466 0.20988382 0.20076457
-0.12580293 -0.20310988 0.11877128 -0.11337786 -0.07709643 0.08667475 -0.18131815 -0.17484143
0.42273054 0.090377465 0.019988114 -0.2632026 0.099921264 -0.3916145 0.17039853 0.05113532
-0.058426496 0.13548796 -0.19094011 -0.1740489 -0.062192127 -0.001575326 0.30144173 0.5910991
0.22427107 0.03286154 0.052119873 -0.27253026 -0.23199147 0.21421368 0.26202226 0.43203562
-0.19772458 0.25800148 0.09889198 -0.2657369 0.16030058 -0.09252703 0.24106944 -0.23513858
0.23888637 -0.3209989 -0.0032174634 -0.1824711 -0.03844316 0.09511784 -0.11165342 0.23001681
0.0059701838 -0.17692152 -0.09443862 -0.19163169 0.27440685 -0.3416382 0.08564305 -0.19626328
-0.06859551 0.17762706 0.12371334 -0.049299967 -0.35175663 -0.12737133 -0.08223748 0.043318186
-0.08628811 -0.06730768 0.34059998 -0.17145185 -0.072225966 0.1199813 -0.03510197 -0.048062786
-0.11778188 0.45917985 -0.20987293 0.12890506 -0.11746073 -0.2176464 -0.29909328 -0.25681818
-0.08932442 0.0825358 0.012809565 -0.014243497 -0.03847254 -0.36009434 -0.059925854 0.009381187
-0.3229429 0.32418597 -0.1941837 0.36466077 -0.12322361 -0.1459368 0.10209951 -0.2750784
-0.09076745 -0.12309104 0.016108895 -0.120142035 0.19071381 -0.35840863 -0.16795358 -0.21397921
-0.20862442 -0.025564918 0.38875368 -0.059617158 -0.33724517 -0.08908338 -0.059531298 0.024007045
-0.16705191 -0.21340072 -0.32605717 0.040683933 -0.18272908 0.11269788 0.056239687 0.5725136

linear2.weight f4 [3, 256]
00000000: cb15 8abe d769 e2bd 3621 a03e dc5a 89bc
00000010: 4b73 26be 8ae3 9cbe 5d19 2b3e 924c db3e
00000020: 5854 83be 5b4f 98be bd66 dd3e cb28 f3be
00000030: 65eb 3d3c 09d1 7ebe 55ff a6bd f52c f7be
00000040: 3262 91be fcfe 4a3e 326c aabe f88d 253e
00000050: fbd8 803e 2b3b acbb 814b 0e3f 2676 963e
00000060: 1c41 c3bd 55e3 b7bd ea80 4fbd 28c7 e3bd
00000070: 6a35 9e3e cba8 6cbe 5919 11bd e2a4 afbe
00000080: f133 82be 2d57 3c3e cedc c5bd 0e52 d13e
00000090: baa3 aa3e 4b34 91bd 3dc0 d3be 9a3a a3bd
000000a0: 8e42 1dbe f808 a53d 88d6 e8be f191 f73e
000000b0: 0b8e 46be dd4d e9be 813b c0be f9f6 e2be
000000c0: e34e 80be 4a8e e23d 741d 02bf def2 a33e
000000d0: 13a1 ba3d 0ebe 28bd af05 7cbe f5c4 38be
000000e0: e6d0 9d3c f1cc 6c3e 02dc bf3e 67f3 8c3e
000000f0: 43c4 7abe 783a b1bd d8b5 d9be 9e15 2bbd
00000100: b272 e1bd 898b cbbe 42b3 e3be e136 a7be
00000110: 876b 623e 360b 523e 8300 a0be 9b9b c2bd
00000120: a719 033d dbc3 07bd 558e 74be c51b a2be
00000130: a221 703e 640e 2bbe 1e79 9f3e aacf c53e
00000140: fc6d 75bd 3b48 c0be 7802 a3be 5625 a73c
00000150: 6e99 99be 17d0 99be 7fa7 c8bd 4abd 0cbe
00000160: ae56 c5bc 1ef9 053e b221 7cbe ffc4 80be
00000170: c2de dfbe 71c7 943e 2bd2 d7bb ac9b 1c3e
00000180: 5ed9 073e 76a0 2abe fbec 9a3e 87f1 923d
00000190: b072 023f 5849 a4be 0c22 a93e 4538 28bd
000001a0: b494 96be 6249 11be 7e27 f23e dbd7 0fbd
000001b0: 27b8 f33e 3cfc 8f3c 2748 cabe 2473 35be
000001c0: 8d8f 0e3d c09b 85be f5dc aa3e 0052 08be
000001d0: 62c1 0f3e 5fc4 e2be 56da 74be 63e2 ecbd
000001e0: 379f 32be d83b 3e3d dca8 363d df95 ddbe
000001f0: 28b7 57bc ea51 033e 92dd 2fbd 0e22 2fbe
00000200: 4cdb ffbd 13d9 1ebd 77ef 99be b3a2 203e
00000210: a6f4 3f3d 994d b9bd a11f 6b3e 80b0 973e
00000220: 683a bbbe 65d8 26bf ba2f 9c3e 5258 9abd
00000230: 8029 76be a5c7 3ebd 9b49 dabe 9ddf 56be
00000240: 3b1d b33e 266c 593e cc36 e4be a2ff c6be
00000250: b393 f63d 7268 1f3d 3800 01bf e31a 6a3d
00000260: 7133 2a3e 3b9a e23e 2c9b 9c3e 4d70 7cbe
00000270: 1ce3 0dbc ed45 a4be 210c 9d3e d981 e63e
00000280: 399b 743e 3f67 833e 4df4 9b3e 474d e73b
00000290: d370 10bf aa3b 373d 2c4d 213e d37b e33e
000002a0: 4966 93be 9171 563e d3d6 e33e e294 2fbd
000002b0: 01c3 ef3d 0a7e 8fbe 0c66 e83e 3984 8bbd
000002c0: 5313 f53e 12ed 85bc c065 303d ff64 1dbe
000002d0: c159 253e f97d e2be 4b5c 0b3e aba5 513e
000002e0: 9628 8e3e a55b 9fbe 3640 ac3e 3cdb 3ebe
000002f0: 63d8 513e 2bd2 8bbc 9d7a e83d ade2 e1bd
00000300: 41e1 6fbc 5360 663e 9630 65be 6dca 33bc
00000310: 33df 96bd d274 95bc 19df aebe 4138 373e
00000320: ee7c 01bd 6c36 953d 0add c93e d801 b1bd
00000330: e914 09bf c404 0a3e c962 5fbd fc68 d2be
00000340: f7b6 3dbe bfce a63e e2d0 88be 4e7f 5f3e
00000350: 345d 0dbf 6057 1abe 7fd4 96bd 3350 0cbe
00000360: 4e66 cc3c f896 3dbe 7d0d 01be 7ed5 28be
00000370: 142c e0bd b11e 3fbe 7384 22be 80fb c73d
00000380: b810 6cbe 9847 493e 203f b5bc 3c03 573e
00000390: fb82 82bd 448d e3be 5614 cbbc 9f04 babe
000003a0: 2cfb 60bd 67c8 f2bc f107 8f3e f19f 06bd
000003b0: 953a 9e3e cea0 a8bc 9a97 62bd 86bb acbe
000003c0: 0abe a2be 58d5 fbbd 5683 303e 8096 87be
000003d0: 644c b4bd 6527 bbbe 6132 febd bd84 b3be
000003e0: 575c 8d3b 22fe 0cbf 1e9b 0d3e 7b0d a13e
000003f0: a643 e0be 69f6 323e 1c6f bbbe f90e 853e
-0.26969752 -0.110553436 0.31275338 -0.016766958 -0.16254918 -0.3064235 0.16708894 0.42831856
-0.25650287 -0.29748043 0.43242446 -0.4749206 0.011591767 -0.24884428 -0.081541695 -0.48276487
-0.2839523 0.19823831 -0.3328567 0.16167438 0.25165543 -0.005256077 0.5558396 0.29387015
-0.09533903 -0.08978907 -0.05066005 -0.111219704 0.30900127 -0.23111264 -0.035424564 -0.34305483
-0.25430253 0.1839263 -0.09661256 0.40882915 0.33328038 -0.07090052 -0.41357604 -0.07970162
-0.1535742 0.08058351 -0.45476174 0.48353532 -0.19390123 -0.45567217 -0.37545398 -0.4432905
-0.25060186 0.11062296 -0.5082619 0.3202123 0.09112754 -0.041196875 -0.24611543 -0.18043883
0.01926465 0.23125054 0.3747254 0.2752945 -0.2448893 -0.0865373 -0.42521548 -0.041768663
-0.110082045 -0.39754894 -0.444727 -0.32659057 0.22111331 0.20512089 -0.3125039 -0.09502336
0.032006886 -0.033145767 -0.2388242 -0.3166181 0.2345033 -0.16704708 0.31147093 0.38634998
-0.059919342 -0.37555107 -0.3183782 0.020403545 -0.2999987 -0.30041572 -0.09797572 -0.13744083
-0.024089184 0.13083312 -0.24622229 -0.25150296 -0.43724638 0.29058412 -0.0065863333 0.15293759
0.13266513 -0.16662773 0.30258927 0.07174974 0.5095625 -0.32087207 0.33033788 -0.041069288
-0.29410326 -0.1418815 0.47295755 -0.035117965 0.47601435 0.01757633 -0.39508173 -0.17719704
0.03480487 -0.2609539 0.33371702 -0.1331253 0.14038613 -0.44290444 -0.23911414 -0.11566617
-0.17443548 0.04644379 0.04459463 -0.43278405 -0.013166226 0.12824216 -0.042935915 -0.17102835
-0.124929994 -0.038781237 -0.3006551 0.15687065 0.046864174 -0.09048004 0.22961284 0.29626846
-0.36567998 -0.6517394 0.30505162 -0.07536377 -0.24039268 -0.046577115 -0.42634282 -0.20983739
0.3498324 0.21232662 -0.44573057 -0.38866907 0.1203989 0.038917966 -0.5039096 0.057154547
0.16621186 0.44258294 0.30587137 -0.24652214 -0.008660104 -0.320846 0.30673316 0.4502094
0.23887338 0.25664708 0.30459824 0.0070587727 -0.56422156 0.044734634 0.15752095 0.44430408
-0.28788975 0.2094176 0.44499835 -0.042866595 0.11707116 -0.28025848 0.45390356 -0.06812329
0.47866306 -0.016348395 0.043065786 -0.15370558 0.1614752 -0.44236735 0.13609426 0.20473354
0.2776534 -0.31124607 0.3364274 -0.18638319 0.20492701 -0.01706799 0.113515116 -0.11029563
-0.014641107 0.22497682 -0.22381815 -0.010973555 -0.073667906 -0.01824418 -0.34154585 0.17892553
-0.031613283 0.07285771 0.39426452 -0.0864293 -0.5354753 0.1347838 -0.05453757 -0.41095722
-0.18526827 0.3257961 -0.26721865 0.21825907 -0.5522034 -0.15072393 -0.07364749 -0.13702469
0.024951126 -0.18514621 -0.12602802 -0.16487691 -0.10945907 -0.18664052 -0.15870838 0.09764767
-0.23053253 0.19656217 -0.022124827 0.20997328 -0.06372639 -0.44443715 -0.02478997 -0.3633165
-0.054927036 -0.029636575 0.27935746 -0.032867376 0.3090407 -0.02058449 -0.05532036 -0.3373682
-0.31785613 -0.122965515 0.172376 -0.2648201 -0.08803633 -0.36553493 -0.12411953 -0.3506221
0.0043139863 -0.55075276 0.13828704 0.31455597 -0.43801612 0.1747681 -0.36608207 0.25987986

linear2.bias f4 [3]
00000000: 6503 503e 349c 5bbd 2d29 35bd
0.20313795 -0.053615764 -0.04422872
